Filename: Sequential(
  (0): MTINet(
    (backbone): HighResolutionNet(
      (conv1): Conv2d(3, 64, kernel_size=(3, 3), stride=(2, 2), padding=(1, 1), bias=False)
      (bn1): BatchNorm2d(64, eps=1e-05, momentum=0.01, affine=True, track_running_stats=True)
      (conv2): Conv2d(64, 64, kernel_size=(3, 3), stride=(2, 2), padding=(1, 1), bias=False)
      (bn2): BatchNorm2d(64, eps=1e-05, momentum=0.01, affine=True, track_running_stats=True)
      (relu): ReLU()
      (layer1): Sequential(
        (0): Bottleneck(
          (conv1): Conv2d(64, 64, kernel_size=(1, 1), stride=(1, 1), bias=False)
          (bn1): BatchNorm2d(64, eps=1e-05, momentum=0.01, affine=True, track_running_stats=True)
          (conv2): Conv2d(64, 64, kernel_size=(3, 3), stride=(1, 1), padding=(1, 1), bias=False)
          (bn2): BatchNorm2d(64, eps=1e-05, momentum=0.01, affine=True, track_running_stats=True)
          (conv3): Conv2d(64, 256, kernel_size=(1, 1), stride=(1, 1), bias=False)
          (bn3): BatchNorm2d(256, eps=1e-05, momentum=0.01, affine=True, track_running_stats=True)
          (relu): ReLU()
          (downsample): Sequential(
            (0): Conv2d(64, 256, kernel_size=(1, 1), stride=(1, 1), bias=False)
            (1): BatchNorm2d(256, eps=1e-05, momentum=0.01, affine=True, track_running_stats=True)
          )
        )
        (1): Bottleneck(
          (conv1): Conv2d(256, 64, kernel_size=(1, 1), stride=(1, 1), bias=False)
          (bn1): BatchNorm2d(64, eps=1e-05, momentum=0.01, affine=True, track_running_stats=True)
          (conv2): Conv2d(64, 64, kernel_size=(3, 3), stride=(1, 1), padding=(1, 1), bias=False)
          (bn2): BatchNorm2d(64, eps=1e-05, momentum=0.01, affine=True, track_running_stats=True)
          (conv3): Conv2d(64, 256, kernel_size=(1, 1), stride=(1, 1), bias=False)
          (bn3): BatchNorm2d(256, eps=1e-05, momentum=0.01, affine=True, track_running_stats=True)
          (relu): ReLU()
        )
      )
      (transition1): ModuleList(
        (0): Sequential(
          (0): Conv2d(256, 18, kernel_size=(3, 3), stride=(1, 1), padding=(1, 1), bias=False)
          (1): BatchNorm2d(18, eps=1e-05, momentum=0.01, affine=True, track_running_stats=True)
          (2): ReLU()
        )
        (1): Sequential(
          (0): Sequential(
            (0): Conv2d(256, 36, kernel_size=(3, 3), stride=(2, 2), padding=(1, 1), bias=False)
            (1): BatchNorm2d(36, eps=1e-05, momentum=0.01, affine=True, track_running_stats=True)
            (2): ReLU()
          )
        )
      )
      (stage2): Sequential(
        (0): HighResolutionModule(
          (branches): ModuleList(
            (0): Sequential(
              (0): BasicBlock(
                (conv1): Conv2d(18, 18, kernel_size=(3, 3), stride=(1, 1), padding=(1, 1), bias=False)
                (bn1): BatchNorm2d(18, eps=1e-05, momentum=0.01, affine=True, track_running_stats=True)
                (relu): ReLU()
                (conv2): Conv2d(18, 18, kernel_size=(3, 3), stride=(1, 1), padding=(1, 1), bias=False)
                (bn2): BatchNorm2d(18, eps=1e-05, momentum=0.01, affine=True, track_running_stats=True)
              )
              (1): BasicBlock(
                (conv1): Conv2d(18, 18, kernel_size=(3, 3), stride=(1, 1), padding=(1, 1), bias=False)
                (bn1): BatchNorm2d(18, eps=1e-05, momentum=0.01, affine=True, track_running_stats=True)
                (relu): ReLU()
                (conv2): Conv2d(18, 18, kernel_size=(3, 3), stride=(1, 1), padding=(1, 1), bias=False)
                (bn2): BatchNorm2d(18, eps=1e-05, momentum=0.01, affine=True, track_running_stats=True)
              )
            )
            (1): Sequential(
              (0): BasicBlock(
                (conv1): Conv2d(36, 36, kernel_size=(3, 3), stride=(1, 1), padding=(1, 1), bias=False)
                (bn1): BatchNorm2d(36, eps=1e-05, momentum=0.01, affine=True, track_running_stats=True)
                (relu): ReLU()
                (conv2): Conv2d(36, 36, kernel_size=(3, 3), stride=(1, 1), padding=(1, 1), bias=False)
                (bn2): BatchNorm2d(36, eps=1e-05, momentum=0.01, affine=True, track_running_stats=True)
              )
              (1): BasicBlock(
                (conv1): Conv2d(36, 36, kernel_size=(3, 3), stride=(1, 1), padding=(1, 1), bias=False)
                (bn1): BatchNorm2d(36, eps=1e-05, momentum=0.01, affine=True, track_running_stats=True)
                (relu): ReLU()
                (conv2): Conv2d(36, 36, kernel_size=(3, 3), stride=(1, 1), padding=(1, 1), bias=False)
                (bn2): BatchNorm2d(36, eps=1e-05, momentum=0.01, affine=True, track_running_stats=True)
              )
            )
          )
          (fuse_layers): ModuleList(
            (0): ModuleList(
              (0): None
              (1): Sequential(
                (0): Conv2d(36, 18, kernel_size=(1, 1), stride=(1, 1), bias=False)
                (1): BatchNorm2d(18, eps=1e-05, momentum=0.01, affine=True, track_running_stats=True)
              )
            )
            (1): ModuleList(
              (0): Sequential(
                (0): Sequential(
                  (0): Conv2d(18, 36, kernel_size=(3, 3), stride=(2, 2), padding=(1, 1), bias=False)
                  (1): BatchNorm2d(36, eps=1e-05, momentum=0.01, affine=True, track_running_stats=True)
                )
              )
              (1): None
            )
          )
          (relu): ReLU()
        )
      )
      (transition2): ModuleList(
        (0): None
        (1): None
        (2): Sequential(
          (0): Sequential(
            (0): Conv2d(36, 72, kernel_size=(3, 3), stride=(2, 2), padding=(1, 1), bias=False)
            (1): BatchNorm2d(72, eps=1e-05, momentum=0.01, affine=True, track_running_stats=True)
            (2): ReLU()
          )
        )
      )
      (stage3): Sequential(
        (0): HighResolutionModule(
          (branches): ModuleList(
            (0): Sequential(
              (0): BasicBlock(
                (conv1): Conv2d(18, 18, kernel_size=(3, 3), stride=(1, 1), padding=(1, 1), bias=False)
                (bn1): BatchNorm2d(18, eps=1e-05, momentum=0.01, affine=True, track_running_stats=True)
                (relu): ReLU()
                (conv2): Conv2d(18, 18, kernel_size=(3, 3), stride=(1, 1), padding=(1, 1), bias=False)
                (bn2): BatchNorm2d(18, eps=1e-05, momentum=0.01, affine=True, track_running_stats=True)
              )
              (1): BasicBlock(
                (conv1): Conv2d(18, 18, kernel_size=(3, 3), stride=(1, 1), padding=(1, 1), bias=False)
                (bn1): BatchNorm2d(18, eps=1e-05, momentum=0.01, affine=True, track_running_stats=True)
                (relu): ReLU()
                (conv2): Conv2d(18, 18, kernel_size=(3, 3), stride=(1, 1), padding=(1, 1), bias=False)
                (bn2): BatchNorm2d(18, eps=1e-05, momentum=0.01, affine=True, track_running_stats=True)
              )
            )
            (1): Sequential(
              (0): BasicBlock(
                (conv1): Conv2d(36, 36, kernel_size=(3, 3), stride=(1, 1), padding=(1, 1), bias=False)
                (bn1): BatchNorm2d(36, eps=1e-05, momentum=0.01, affine=True, track_running_stats=True)
                (relu): ReLU()
                (conv2): Conv2d(36, 36, kernel_size=(3, 3), stride=(1, 1), padding=(1, 1), bias=False)
                (bn2): BatchNorm2d(36, eps=1e-05, momentum=0.01, affine=True, track_running_stats=True)
              )
              (1): BasicBlock(
                (conv1): Conv2d(36, 36, kernel_size=(3, 3), stride=(1, 1), padding=(1, 1), bias=False)
                (bn1): BatchNorm2d(36, eps=1e-05, momentum=0.01, affine=True, track_running_stats=True)
                (relu): ReLU()
                (conv2): Conv2d(36, 36, kernel_size=(3, 3), stride=(1, 1), padding=(1, 1), bias=False)
                (bn2): BatchNorm2d(36, eps=1e-05, momentum=0.01, affine=True, track_running_stats=True)
              )
            )
            (2): Sequential(
              (0): BasicBlock(
                (conv1): Conv2d(72, 72, kernel_size=(3, 3), stride=(1, 1), padding=(1, 1), bias=False)
                (bn1): BatchNorm2d(72, eps=1e-05, momentum=0.01, affine=True, track_running_stats=True)
                (relu): ReLU()
                (conv2): Conv2d(72, 72, kernel_size=(3, 3), stride=(1, 1), padding=(1, 1), bias=False)
                (bn2): BatchNorm2d(72, eps=1e-05, momentum=0.01, affine=True, track_running_stats=True)
              )
              (1): BasicBlock(
                (conv1): Conv2d(72, 72, kernel_size=(3, 3), stride=(1, 1), padding=(1, 1), bias=False)
                (bn1): BatchNorm2d(72, eps=1e-05, momentum=0.01, affine=True, track_running_stats=True)
                (relu): ReLU()
                (conv2): Conv2d(72, 72, kernel_size=(3, 3), stride=(1, 1), padding=(1, 1), bias=False)
                (bn2): BatchNorm2d(72, eps=1e-05, momentum=0.01, affine=True, track_running_stats=True)
              )
            )
          )
          (fuse_layers): ModuleList(
            (0): ModuleList(
              (0): None
              (1): Sequential(
                (0): Conv2d(36, 18, kernel_size=(1, 1), stride=(1, 1), bias=False)
                (1): BatchNorm2d(18, eps=1e-05, momentum=0.01, affine=True, track_running_stats=True)
              )
              (2): Sequential(
                (0): Conv2d(72, 18, kernel_size=(1, 1), stride=(1, 1), bias=False)
                (1): BatchNorm2d(18, eps=1e-05, momentum=0.01, affine=True, track_running_stats=True)
              )
            )
            (1): ModuleList(
              (0): Sequential(
                (0): Sequential(
                  (0): Conv2d(18, 36, kernel_size=(3, 3), stride=(2, 2), padding=(1, 1), bias=False)
                  (1): BatchNorm2d(36, eps=1e-05, momentum=0.01, affine=True, track_running_stats=True)
                )
              )
              (1): None
              (2): Sequential(
                (0): Conv2d(72, 36, kernel_size=(1, 1), stride=(1, 1), bias=False)
                (1): BatchNorm2d(36, eps=1e-05, momentum=0.01, affine=True, track_running_stats=True)
              )
            )
            (2): ModuleList(
              (0): Sequential(
                (0): Sequential(
                  (0): Conv2d(18, 18, kernel_size=(3, 3), stride=(2, 2), padding=(1, 1), bias=False)
                  (1): BatchNorm2d(18, eps=1e-05, momentum=0.01, affine=True, track_running_stats=True)
                  (2): ReLU()
                )
                (1): Sequential(
                  (0): Conv2d(18, 72, kernel_size=(3, 3), stride=(2, 2), padding=(1, 1), bias=False)
                  (1): BatchNorm2d(72, eps=1e-05, momentum=0.01, affine=True, track_running_stats=True)
                )
              )
              (1): Sequential(
                (0): Sequential(
                  (0): Conv2d(36, 72, kernel_size=(3, 3), stride=(2, 2), padding=(1, 1), bias=False)
                  (1): BatchNorm2d(72, eps=1e-05, momentum=0.01, affine=True, track_running_stats=True)
                )
              )
              (2): None
            )
          )
          (relu): ReLU()
        )
        (1): HighResolutionModule(
          (branches): ModuleList(
            (0): Sequential(
              (0): BasicBlock(
                (conv1): Conv2d(18, 18, kernel_size=(3, 3), stride=(1, 1), padding=(1, 1), bias=False)
                (bn1): BatchNorm2d(18, eps=1e-05, momentum=0.01, affine=True, track_running_stats=True)
                (relu): ReLU()
                (conv2): Conv2d(18, 18, kernel_size=(3, 3), stride=(1, 1), padding=(1, 1), bias=False)
                (bn2): BatchNorm2d(18, eps=1e-05, momentum=0.01, affine=True, track_running_stats=True)
              )
              (1): BasicBlock(
                (conv1): Conv2d(18, 18, kernel_size=(3, 3), stride=(1, 1), padding=(1, 1), bias=False)
                (bn1): BatchNorm2d(18, eps=1e-05, momentum=0.01, affine=True, track_running_stats=True)
                (relu): ReLU()
                (conv2): Conv2d(18, 18, kernel_size=(3, 3), stride=(1, 1), padding=(1, 1), bias=False)
                (bn2): BatchNorm2d(18, eps=1e-05, momentum=0.01, affine=True, track_running_stats=True)
              )
            )
            (1): Sequential(
              (0): BasicBlock(
                (conv1): Conv2d(36, 36, kernel_size=(3, 3), stride=(1, 1), padding=(1, 1), bias=False)
                (bn1): BatchNorm2d(36, eps=1e-05, momentum=0.01, affine=True, track_running_stats=True)
                (relu): ReLU()
                (conv2): Conv2d(36, 36, kernel_size=(3, 3), stride=(1, 1), padding=(1, 1), bias=False)
                (bn2): BatchNorm2d(36, eps=1e-05, momentum=0.01, affine=True, track_running_stats=True)
              )
              (1): BasicBlock(
                (conv1): Conv2d(36, 36, kernel_size=(3, 3), stride=(1, 1), padding=(1, 1), bias=False)
                (bn1): BatchNorm2d(36, eps=1e-05, momentum=0.01, affine=True, track_running_stats=True)
                (relu): ReLU()
                (conv2): Conv2d(36, 36, kernel_size=(3, 3), stride=(1, 1), padding=(1, 1), bias=False)
                (bn2): BatchNorm2d(36, eps=1e-05, momentum=0.01, affine=True, track_running_stats=True)
              )
            )
            (2): Sequential(
              (0): BasicBlock(
                (conv1): Conv2d(72, 72, kernel_size=(3, 3), stride=(1, 1), padding=(1, 1), bias=False)
                (bn1): BatchNorm2d(72, eps=1e-05, momentum=0.01, affine=True, track_running_stats=True)
                (relu): ReLU()
                (conv2): Conv2d(72, 72, kernel_size=(3, 3), stride=(1, 1), padding=(1, 1), bias=False)
                (bn2): BatchNorm2d(72, eps=1e-05, momentum=0.01, affine=True, track_running_stats=True)
              )
              (1): BasicBlock(
                (conv1): Conv2d(72, 72, kernel_size=(3, 3), stride=(1, 1), padding=(1, 1), bias=False)
                (bn1): BatchNorm2d(72, eps=1e-05, momentum=0.01, affine=True, track_running_stats=True)
                (relu): ReLU()
                (conv2): Conv2d(72, 72, kernel_size=(3, 3), stride=(1, 1), padding=(1, 1), bias=False)
                (bn2): BatchNorm2d(72, eps=1e-05, momentum=0.01, affine=True, track_running_stats=True)
              )
            )
          )
          (fuse_layers): ModuleList(
            (0): ModuleList(
              (0): None
              (1): Sequential(
                (0): Conv2d(36, 18, kernel_size=(1, 1), stride=(1, 1), bias=False)
                (1): BatchNorm2d(18, eps=1e-05, momentum=0.01, affine=True, track_running_stats=True)
              )
              (2): Sequential(
                (0): Conv2d(72, 18, kernel_size=(1, 1), stride=(1, 1), bias=False)
                (1): BatchNorm2d(18, eps=1e-05, momentum=0.01, affine=True, track_running_stats=True)
              )
            )
            (1): ModuleList(
              (0): Sequential(
                (0): Sequential(
                  (0): Conv2d(18, 36, kernel_size=(3, 3), stride=(2, 2), padding=(1, 1), bias=False)
                  (1): BatchNorm2d(36, eps=1e-05, momentum=0.01, affine=True, track_running_stats=True)
                )
              )
              (1): None
              (2): Sequential(
                (0): Conv2d(72, 36, kernel_size=(1, 1), stride=(1, 1), bias=False)
                (1): BatchNorm2d(36, eps=1e-05, momentum=0.01, affine=True, track_running_stats=True)
              )
            )
            (2): ModuleList(
              (0): Sequential(
                (0): Sequential(
                  (0): Conv2d(18, 18, kernel_size=(3, 3), stride=(2, 2), padding=(1, 1), bias=False)
                  (1): BatchNorm2d(18, eps=1e-05, momentum=0.01, affine=True, track_running_stats=True)
                  (2): ReLU()
                )
                (1): Sequential(
                  (0): Conv2d(18, 72, kernel_size=(3, 3), stride=(2, 2), padding=(1, 1), bias=False)
                  (1): BatchNorm2d(72, eps=1e-05, momentum=0.01, affine=True, track_running_stats=True)
                )
              )
              (1): Sequential(
                (0): Sequential(
                  (0): Conv2d(36, 72, kernel_size=(3, 3), stride=(2, 2), padding=(1, 1), bias=False)
                  (1): BatchNorm2d(72, eps=1e-05, momentum=0.01, affine=True, track_running_stats=True)
                )
              )
              (2): None
            )
          )
          (relu): ReLU()
        )
        (2): HighResolutionModule(
          (branches): ModuleList(
            (0): Sequential(
              (0): BasicBlock(
                (conv1): Conv2d(18, 18, kernel_size=(3, 3), stride=(1, 1), padding=(1, 1), bias=False)
                (bn1): BatchNorm2d(18, eps=1e-05, momentum=0.01, affine=True, track_running_stats=True)
                (relu): ReLU()
                (conv2): Conv2d(18, 18, kernel_size=(3, 3), stride=(1, 1), padding=(1, 1), bias=False)
                (bn2): BatchNorm2d(18, eps=1e-05, momentum=0.01, affine=True, track_running_stats=True)
              )
              (1): BasicBlock(
                (conv1): Conv2d(18, 18, kernel_size=(3, 3), stride=(1, 1), padding=(1, 1), bias=False)
                (bn1): BatchNorm2d(18, eps=1e-05, momentum=0.01, affine=True, track_running_stats=True)
                (relu): ReLU()
                (conv2): Conv2d(18, 18, kernel_size=(3, 3), stride=(1, 1), padding=(1, 1), bias=False)
                (bn2): BatchNorm2d(18, eps=1e-05, momentum=0.01, affine=True, track_running_stats=True)
              )
            )
            (1): Sequential(
              (0): BasicBlock(
                (conv1): Conv2d(36, 36, kernel_size=(3, 3), stride=(1, 1), padding=(1, 1), bias=False)
                (bn1): BatchNorm2d(36, eps=1e-05, momentum=0.01, affine=True, track_running_stats=True)
                (relu): ReLU()
                (conv2): Conv2d(36, 36, kernel_size=(3, 3), stride=(1, 1), padding=(1, 1), bias=False)
                (bn2): BatchNorm2d(36, eps=1e-05, momentum=0.01, affine=True, track_running_stats=True)
              )
              (1): BasicBlock(
                (conv1): Conv2d(36, 36, kernel_size=(3, 3), stride=(1, 1), padding=(1, 1), bias=False)
                (bn1): BatchNorm2d(36, eps=1e-05, momentum=0.01, affine=True, track_running_stats=True)
                (relu): ReLU()
                (conv2): Conv2d(36, 36, kernel_size=(3, 3), stride=(1, 1), padding=(1, 1), bias=False)
                (bn2): BatchNorm2d(36, eps=1e-05, momentum=0.01, affine=True, track_running_stats=True)
              )
            )
            (2): Sequential(
              (0): BasicBlock(
                (conv1): Conv2d(72, 72, kernel_size=(3, 3), stride=(1, 1), padding=(1, 1), bias=False)
                (bn1): BatchNorm2d(72, eps=1e-05, momentum=0.01, affine=True, track_running_stats=True)
                (relu): ReLU()
                (conv2): Conv2d(72, 72, kernel_size=(3, 3), stride=(1, 1), padding=(1, 1), bias=False)
                (bn2): BatchNorm2d(72, eps=1e-05, momentum=0.01, affine=True, track_running_stats=True)
              )
              (1): BasicBlock(
                (conv1): Conv2d(72, 72, kernel_size=(3, 3), stride=(1, 1), padding=(1, 1), bias=False)
                (bn1): BatchNorm2d(72, eps=1e-05, momentum=0.01, affine=True, track_running_stats=True)
                (relu): ReLU()
                (conv2): Conv2d(72, 72, kernel_size=(3, 3), stride=(1, 1), padding=(1, 1), bias=False)
                (bn2): BatchNorm2d(72, eps=1e-05, momentum=0.01, affine=True, track_running_stats=True)
              )
            )
          )
          (fuse_layers): ModuleList(
            (0): ModuleList(
              (0): None
              (1): Sequential(
                (0): Conv2d(36, 18, kernel_size=(1, 1), stride=(1, 1), bias=False)
                (1): BatchNorm2d(18, eps=1e-05, momentum=0.01, affine=True, track_running_stats=True)
              )
              (2): Sequential(
                (0): Conv2d(72, 18, kernel_size=(1, 1), stride=(1, 1), bias=False)
                (1): BatchNorm2d(18, eps=1e-05, momentum=0.01, affine=True, track_running_stats=True)
              )
            )
            (1): ModuleList(
              (0): Sequential(
                (0): Sequential(
                  (0): Conv2d(18, 36, kernel_size=(3, 3), stride=(2, 2), padding=(1, 1), bias=False)
                  (1): BatchNorm2d(36, eps=1e-05, momentum=0.01, affine=True, track_running_stats=True)
                )
              )
              (1): None
              (2): Sequential(
                (0): Conv2d(72, 36, kernel_size=(1, 1), stride=(1, 1), bias=False)
                (1): BatchNorm2d(36, eps=1e-05, momentum=0.01, affine=True, track_running_stats=True)
              )
            )
            (2): ModuleList(
              (0): Sequential(
                (0): Sequential(
                  (0): Conv2d(18, 18, kernel_size=(3, 3), stride=(2, 2), padding=(1, 1), bias=False)
                  (1): BatchNorm2d(18, eps=1e-05, momentum=0.01, affine=True, track_running_stats=True)
                  (2): ReLU()
                )
                (1): Sequential(
                  (0): Conv2d(18, 72, kernel_size=(3, 3), stride=(2, 2), padding=(1, 1), bias=False)
                  (1): BatchNorm2d(72, eps=1e-05, momentum=0.01, affine=True, track_running_stats=True)
                )
              )
              (1): Sequential(
                (0): Sequential(
                  (0): Conv2d(36, 72, kernel_size=(3, 3), stride=(2, 2), padding=(1, 1), bias=False)
                  (1): BatchNorm2d(72, eps=1e-05, momentum=0.01, affine=True, track_running_stats=True)
                )
              )
              (2): None
            )
          )
          (relu): ReLU()
        )
      )
      (transition3): ModuleList(
        (0): None
        (1): None
        (2): None
        (3): Sequential(
          (0): Sequential(
            (0): Conv2d(72, 144, kernel_size=(3, 3), stride=(2, 2), padding=(1, 1), bias=False)
            (1): BatchNorm2d(144, eps=1e-05, momentum=0.01, affine=True, track_running_stats=True)
            (2): ReLU()
          )
        )
      )
      (stage4): Sequential(
        (0): HighResolutionModule(
          (branches): ModuleList(
            (0): Sequential(
              (0): BasicBlock(
                (conv1): Conv2d(18, 18, kernel_size=(3, 3), stride=(1, 1), padding=(1, 1), bias=False)
                (bn1): BatchNorm2d(18, eps=1e-05, momentum=0.01, affine=True, track_running_stats=True)
                (relu): ReLU()
                (conv2): Conv2d(18, 18, kernel_size=(3, 3), stride=(1, 1), padding=(1, 1), bias=False)
                (bn2): BatchNorm2d(18, eps=1e-05, momentum=0.01, affine=True, track_running_stats=True)
              )
              (1): BasicBlock(
                (conv1): Conv2d(18, 18, kernel_size=(3, 3), stride=(1, 1), padding=(1, 1), bias=False)
                (bn1): BatchNorm2d(18, eps=1e-05, momentum=0.01, affine=True, track_running_stats=True)
                (relu): ReLU()
                (conv2): Conv2d(18, 18, kernel_size=(3, 3), stride=(1, 1), padding=(1, 1), bias=False)
                (bn2): BatchNorm2d(18, eps=1e-05, momentum=0.01, affine=True, track_running_stats=True)
              )
            )
            (1): Sequential(
              (0): BasicBlock(
                (conv1): Conv2d(36, 36, kernel_size=(3, 3), stride=(1, 1), padding=(1, 1), bias=False)
                (bn1): BatchNorm2d(36, eps=1e-05, momentum=0.01, affine=True, track_running_stats=True)
                (relu): ReLU()
                (conv2): Conv2d(36, 36, kernel_size=(3, 3), stride=(1, 1), padding=(1, 1), bias=False)
                (bn2): BatchNorm2d(36, eps=1e-05, momentum=0.01, affine=True, track_running_stats=True)
              )
              (1): BasicBlock(
                (conv1): Conv2d(36, 36, kernel_size=(3, 3), stride=(1, 1), padding=(1, 1), bias=False)
                (bn1): BatchNorm2d(36, eps=1e-05, momentum=0.01, affine=True, track_running_stats=True)
                (relu): ReLU()
                (conv2): Conv2d(36, 36, kernel_size=(3, 3), stride=(1, 1), padding=(1, 1), bias=False)
                (bn2): BatchNorm2d(36, eps=1e-05, momentum=0.01, affine=True, track_running_stats=True)
              )
            )
            (2): Sequential(
              (0): BasicBlock(
                (conv1): Conv2d(72, 72, kernel_size=(3, 3), stride=(1, 1), padding=(1, 1), bias=False)
                (bn1): BatchNorm2d(72, eps=1e-05, momentum=0.01, affine=True, track_running_stats=True)
                (relu): ReLU()
                (conv2): Conv2d(72, 72, kernel_size=(3, 3), stride=(1, 1), padding=(1, 1), bias=False)
                (bn2): BatchNorm2d(72, eps=1e-05, momentum=0.01, affine=True, track_running_stats=True)
              )
              (1): BasicBlock(
                (conv1): Conv2d(72, 72, kernel_size=(3, 3), stride=(1, 1), padding=(1, 1), bias=False)
                (bn1): BatchNorm2d(72, eps=1e-05, momentum=0.01, affine=True, track_running_stats=True)
                (relu): ReLU()
                (conv2): Conv2d(72, 72, kernel_size=(3, 3), stride=(1, 1), padding=(1, 1), bias=False)
                (bn2): BatchNorm2d(72, eps=1e-05, momentum=0.01, affine=True, track_running_stats=True)
              )
            )
            (3): Sequential(
              (0): BasicBlock(
                (conv1): Conv2d(144, 144, kernel_size=(3, 3), stride=(1, 1), padding=(1, 1), bias=False)
                (bn1): BatchNorm2d(144, eps=1e-05, momentum=0.01, affine=True, track_running_stats=True)
                (relu): ReLU()
                (conv2): Conv2d(144, 144, kernel_size=(3, 3), stride=(1, 1), padding=(1, 1), bias=False)
                (bn2): BatchNorm2d(144, eps=1e-05, momentum=0.01, affine=True, track_running_stats=True)
              )
              (1): BasicBlock(
                (conv1): Conv2d(144, 144, kernel_size=(3, 3), stride=(1, 1), padding=(1, 1), bias=False)
                (bn1): BatchNorm2d(144, eps=1e-05, momentum=0.01, affine=True, track_running_stats=True)
                (relu): ReLU()
                (conv2): Conv2d(144, 144, kernel_size=(3, 3), stride=(1, 1), padding=(1, 1), bias=False)
                (bn2): BatchNorm2d(144, eps=1e-05, momentum=0.01, affine=True, track_running_stats=True)
              )
            )
          )
          (fuse_layers): ModuleList(
            (0): ModuleList(
              (0): None
              (1): Sequential(
                (0): Conv2d(36, 18, kernel_size=(1, 1), stride=(1, 1), bias=False)
                (1): BatchNorm2d(18, eps=1e-05, momentum=0.01, affine=True, track_running_stats=True)
              )
              (2): Sequential(
                (0): Conv2d(72, 18, kernel_size=(1, 1), stride=(1, 1), bias=False)
                (1): BatchNorm2d(18, eps=1e-05, momentum=0.01, affine=True, track_running_stats=True)
              )
              (3): Sequential(
                (0): Conv2d(144, 18, kernel_size=(1, 1), stride=(1, 1), bias=False)
                (1): BatchNorm2d(18, eps=1e-05, momentum=0.01, affine=True, track_running_stats=True)
              )
            )
            (1): ModuleList(
              (0): Sequential(
                (0): Sequential(
                  (0): Conv2d(18, 36, kernel_size=(3, 3), stride=(2, 2), padding=(1, 1), bias=False)
                  (1): BatchNorm2d(36, eps=1e-05, momentum=0.01, affine=True, track_running_stats=True)
                )
              )
              (1): None
              (2): Sequential(
                (0): Conv2d(72, 36, kernel_size=(1, 1), stride=(1, 1), bias=False)
                (1): BatchNorm2d(36, eps=1e-05, momentum=0.01, affine=True, track_running_stats=True)
              )
              (3): Sequential(
                (0): Conv2d(144, 36, kernel_size=(1, 1), stride=(1, 1), bias=False)
                (1): BatchNorm2d(36, eps=1e-05, momentum=0.01, affine=True, track_running_stats=True)
              )
            )
            (2): ModuleList(
              (0): Sequential(
                (0): Sequential(
                  (0): Conv2d(18, 18, kernel_size=(3, 3), stride=(2, 2), padding=(1, 1), bias=False)
                  (1): BatchNorm2d(18, eps=1e-05, momentum=0.01, affine=True, track_running_stats=True)
                  (2): ReLU()
                )
                (1): Sequential(
                  (0): Conv2d(18, 72, kernel_size=(3, 3), stride=(2, 2), padding=(1, 1), bias=False)
                  (1): BatchNorm2d(72, eps=1e-05, momentum=0.01, affine=True, track_running_stats=True)
                )
              )
              (1): Sequential(
                (0): Sequential(
                  (0): Conv2d(36, 72, kernel_size=(3, 3), stride=(2, 2), padding=(1, 1), bias=False)
                  (1): BatchNorm2d(72, eps=1e-05, momentum=0.01, affine=True, track_running_stats=True)
                )
              )
              (2): None
              (3): Sequential(
                (0): Conv2d(144, 72, kernel_size=(1, 1), stride=(1, 1), bias=False)
                (1): BatchNorm2d(72, eps=1e-05, momentum=0.01, affine=True, track_running_stats=True)
              )
            )
            (3): ModuleList(
              (0): Sequential(
                (0): Sequential(
                  (0): Conv2d(18, 18, kernel_size=(3, 3), stride=(2, 2), padding=(1, 1), bias=False)
                  (1): BatchNorm2d(18, eps=1e-05, momentum=0.01, affine=True, track_running_stats=True)
                  (2): ReLU()
                )
                (1): Sequential(
                  (0): Conv2d(18, 18, kernel_size=(3, 3), stride=(2, 2), padding=(1, 1), bias=False)
                  (1): BatchNorm2d(18, eps=1e-05, momentum=0.01, affine=True, track_running_stats=True)
                  (2): ReLU()
                )
                (2): Sequential(
                  (0): Conv2d(18, 144, kernel_size=(3, 3), stride=(2, 2), padding=(1, 1), bias=False)
                  (1): BatchNorm2d(144, eps=1e-05, momentum=0.01, affine=True, track_running_stats=True)
                )
              )
              (1): Sequential(
                (0): Sequential(
                  (0): Conv2d(36, 36, kernel_size=(3, 3), stride=(2, 2), padding=(1, 1), bias=False)
                  (1): BatchNorm2d(36, eps=1e-05, momentum=0.01, affine=True, track_running_stats=True)
                  (2): ReLU()
                )
                (1): Sequential(
                  (0): Conv2d(36, 144, kernel_size=(3, 3), stride=(2, 2), padding=(1, 1), bias=False)
                  (1): BatchNorm2d(144, eps=1e-05, momentum=0.01, affine=True, track_running_stats=True)
                )
              )
              (2): Sequential(
                (0): Sequential(
                  (0): Conv2d(72, 144, kernel_size=(3, 3), stride=(2, 2), padding=(1, 1), bias=False)
                  (1): BatchNorm2d(144, eps=1e-05, momentum=0.01, affine=True, track_running_stats=True)
                )
              )
              (3): None
            )
          )
          (relu): ReLU()
        )
        (1): HighResolutionModule(
          (branches): ModuleList(
            (0): Sequential(
              (0): BasicBlock(
                (conv1): Conv2d(18, 18, kernel_size=(3, 3), stride=(1, 1), padding=(1, 1), bias=False)
                (bn1): BatchNorm2d(18, eps=1e-05, momentum=0.01, affine=True, track_running_stats=True)
                (relu): ReLU()
                (conv2): Conv2d(18, 18, kernel_size=(3, 3), stride=(1, 1), padding=(1, 1), bias=False)
                (bn2): BatchNorm2d(18, eps=1e-05, momentum=0.01, affine=True, track_running_stats=True)
              )
              (1): BasicBlock(
                (conv1): Conv2d(18, 18, kernel_size=(3, 3), stride=(1, 1), padding=(1, 1), bias=False)
                (bn1): BatchNorm2d(18, eps=1e-05, momentum=0.01, affine=True, track_running_stats=True)
                (relu): ReLU()
                (conv2): Conv2d(18, 18, kernel_size=(3, 3), stride=(1, 1), padding=(1, 1), bias=False)
                (bn2): BatchNorm2d(18, eps=1e-05, momentum=0.01, affine=True, track_running_stats=True)
              )
            )
            (1): Sequential(
              (0): BasicBlock(
                (conv1): Conv2d(36, 36, kernel_size=(3, 3), stride=(1, 1), padding=(1, 1), bias=False)
                (bn1): BatchNorm2d(36, eps=1e-05, momentum=0.01, affine=True, track_running_stats=True)
                (relu): ReLU()
                (conv2): Conv2d(36, 36, kernel_size=(3, 3), stride=(1, 1), padding=(1, 1), bias=False)
                (bn2): BatchNorm2d(36, eps=1e-05, momentum=0.01, affine=True, track_running_stats=True)
              )
              (1): BasicBlock(
                (conv1): Conv2d(36, 36, kernel_size=(3, 3), stride=(1, 1), padding=(1, 1), bias=False)
                (bn1): BatchNorm2d(36, eps=1e-05, momentum=0.01, affine=True, track_running_stats=True)
                (relu): ReLU()
                (conv2): Conv2d(36, 36, kernel_size=(3, 3), stride=(1, 1), padding=(1, 1), bias=False)
                (bn2): BatchNorm2d(36, eps=1e-05, momentum=0.01, affine=True, track_running_stats=True)
              )
            )
            (2): Sequential(
              (0): BasicBlock(
                (conv1): Conv2d(72, 72, kernel_size=(3, 3), stride=(1, 1), padding=(1, 1), bias=False)
                (bn1): BatchNorm2d(72, eps=1e-05, momentum=0.01, affine=True, track_running_stats=True)
                (relu): ReLU()
                (conv2): Conv2d(72, 72, kernel_size=(3, 3), stride=(1, 1), padding=(1, 1), bias=False)
                (bn2): BatchNorm2d(72, eps=1e-05, momentum=0.01, affine=True, track_running_stats=True)
              )
              (1): BasicBlock(
                (conv1): Conv2d(72, 72, kernel_size=(3, 3), stride=(1, 1), padding=(1, 1), bias=False)
                (bn1): BatchNorm2d(72, eps=1e-05, momentum=0.01, affine=True, track_running_stats=True)
                (relu): ReLU()
                (conv2): Conv2d(72, 72, kernel_size=(3, 3), stride=(1, 1), padding=(1, 1), bias=False)
                (bn2): BatchNorm2d(72, eps=1e-05, momentum=0.01, affine=True, track_running_stats=True)
              )
            )
            (3): Sequential(
              (0): BasicBlock(
                (conv1): Conv2d(144, 144, kernel_size=(3, 3), stride=(1, 1), padding=(1, 1), bias=False)
                (bn1): BatchNorm2d(144, eps=1e-05, momentum=0.01, affine=True, track_running_stats=True)
                (relu): ReLU()
                (conv2): Conv2d(144, 144, kernel_size=(3, 3), stride=(1, 1), padding=(1, 1), bias=False)
                (bn2): BatchNorm2d(144, eps=1e-05, momentum=0.01, affine=True, track_running_stats=True)
              )
              (1): BasicBlock(
                (conv1): Conv2d(144, 144, kernel_size=(3, 3), stride=(1, 1), padding=(1, 1), bias=False)
                (bn1): BatchNorm2d(144, eps=1e-05, momentum=0.01, affine=True, track_running_stats=True)
                (relu): ReLU()
                (conv2): Conv2d(144, 144, kernel_size=(3, 3), stride=(1, 1), padding=(1, 1), bias=False)
                (bn2): BatchNorm2d(144, eps=1e-05, momentum=0.01, affine=True, track_running_stats=True)
              )
            )
          )
          (fuse_layers): ModuleList(
            (0): ModuleList(
              (0): None
              (1): Sequential(
                (0): Conv2d(36, 18, kernel_size=(1, 1), stride=(1, 1), bias=False)
                (1): BatchNorm2d(18, eps=1e-05, momentum=0.01, affine=True, track_running_stats=True)
              )
              (2): Sequential(
                (0): Conv2d(72, 18, kernel_size=(1, 1), stride=(1, 1), bias=False)
                (1): BatchNorm2d(18, eps=1e-05, momentum=0.01, affine=True, track_running_stats=True)
              )
              (3): Sequential(
                (0): Conv2d(144, 18, kernel_size=(1, 1), stride=(1, 1), bias=False)
                (1): BatchNorm2d(18, eps=1e-05, momentum=0.01, affine=True, track_running_stats=True)
              )
            )
            (1): ModuleList(
              (0): Sequential(
                (0): Sequential(
                  (0): Conv2d(18, 36, kernel_size=(3, 3), stride=(2, 2), padding=(1, 1), bias=False)
                  (1): BatchNorm2d(36, eps=1e-05, momentum=0.01, affine=True, track_running_stats=True)
                )
              )
              (1): None
              (2): Sequential(
                (0): Conv2d(72, 36, kernel_size=(1, 1), stride=(1, 1), bias=False)
                (1): BatchNorm2d(36, eps=1e-05, momentum=0.01, affine=True, track_running_stats=True)
              )
              (3): Sequential(
                (0): Conv2d(144, 36, kernel_size=(1, 1), stride=(1, 1), bias=False)
                (1): BatchNorm2d(36, eps=1e-05, momentum=0.01, affine=True, track_running_stats=True)
              )
            )
            (2): ModuleList(
              (0): Sequential(
                (0): Sequential(
                  (0): Conv2d(18, 18, kernel_size=(3, 3), stride=(2, 2), padding=(1, 1), bias=False)
                  (1): BatchNorm2d(18, eps=1e-05, momentum=0.01, affine=True, track_running_stats=True)
                  (2): ReLU()
                )
                (1): Sequential(
                  (0): Conv2d(18, 72, kernel_size=(3, 3), stride=(2, 2), padding=(1, 1), bias=False)
                  (1): BatchNorm2d(72, eps=1e-05, momentum=0.01, affine=True, track_running_stats=True)
                )
              )
              (1): Sequential(
                (0): Sequential(
                  (0): Conv2d(36, 72, kernel_size=(3, 3), stride=(2, 2), padding=(1, 1), bias=False)
                  (1): BatchNorm2d(72, eps=1e-05, momentum=0.01, affine=True, track_running_stats=True)
                )
              )
              (2): None
              (3): Sequential(
                (0): Conv2d(144, 72, kernel_size=(1, 1), stride=(1, 1), bias=False)
                (1): BatchNorm2d(72, eps=1e-05, momentum=0.01, affine=True, track_running_stats=True)
              )
            )
            (3): ModuleList(
              (0): Sequential(
                (0): Sequential(
                  (0): Conv2d(18, 18, kernel_size=(3, 3), stride=(2, 2), padding=(1, 1), bias=False)
                  (1): BatchNorm2d(18, eps=1e-05, momentum=0.01, affine=True, track_running_stats=True)
                  (2): ReLU()
                )
                (1): Sequential(
                  (0): Conv2d(18, 18, kernel_size=(3, 3), stride=(2, 2), padding=(1, 1), bias=False)
                  (1): BatchNorm2d(18, eps=1e-05, momentum=0.01, affine=True, track_running_stats=True)
                  (2): ReLU()
                )
                (2): Sequential(
                  (0): Conv2d(18, 144, kernel_size=(3, 3), stride=(2, 2), padding=(1, 1), bias=False)
                  (1): BatchNorm2d(144, eps=1e-05, momentum=0.01, affine=True, track_running_stats=True)
                )
              )
              (1): Sequential(
                (0): Sequential(
                  (0): Conv2d(36, 36, kernel_size=(3, 3), stride=(2, 2), padding=(1, 1), bias=False)
                  (1): BatchNorm2d(36, eps=1e-05, momentum=0.01, affine=True, track_running_stats=True)
                  (2): ReLU()
                )
                (1): Sequential(
                  (0): Conv2d(36, 144, kernel_size=(3, 3), stride=(2, 2), padding=(1, 1), bias=False)
                  (1): BatchNorm2d(144, eps=1e-05, momentum=0.01, affine=True, track_running_stats=True)
                )
              )
              (2): Sequential(
                (0): Sequential(
                  (0): Conv2d(72, 144, kernel_size=(3, 3), stride=(2, 2), padding=(1, 1), bias=False)
                  (1): BatchNorm2d(144, eps=1e-05, momentum=0.01, affine=True, track_running_stats=True)
                )
              )
              (3): None
            )
          )
          (relu): ReLU()
        )
      )
    )
    (fpm_scale_3): FPM(
      (non_linear): Sequential(
        (0): BasicBlock(
          (conv1): Conv2d(288, 72, kernel_size=(3, 3), stride=(1, 1), padding=(1, 1), bias=False)
          (bn1): BatchNorm2d(72, eps=1e-05, momentum=0.1, affine=True, track_running_stats=True)
          (relu): ReLU(inplace=True)
          (conv2): Conv2d(72, 72, kernel_size=(3, 3), stride=(1, 1), padding=(1, 1), bias=False)
          (bn2): BatchNorm2d(72, eps=1e-05, momentum=0.1, affine=True, track_running_stats=True)
          (downsample): Sequential(
            (0): Conv2d(288, 72, kernel_size=(1, 1), stride=(1, 1), bias=False)
            (1): BatchNorm2d(72, eps=1e-05, momentum=0.1, affine=True, track_running_stats=True)
          )
        )
        (1): BasicBlock(
          (conv1): Conv2d(72, 72, kernel_size=(3, 3), stride=(1, 1), padding=(1, 1), bias=False)
          (bn1): BatchNorm2d(72, eps=1e-05, momentum=0.1, affine=True, track_running_stats=True)
          (relu): ReLU(inplace=True)
          (conv2): Conv2d(72, 72, kernel_size=(3, 3), stride=(1, 1), padding=(1, 1), bias=False)
          (bn2): BatchNorm2d(72, eps=1e-05, momentum=0.1, affine=True, track_running_stats=True)
        )
        (2): Conv2d(72, 288, kernel_size=(1, 1), stride=(1, 1))
      )
      (dimensionality_reduction): BasicBlock(
        (conv1): Conv2d(288, 144, kernel_size=(3, 3), stride=(1, 1), padding=(1, 1), bias=False)
        (bn1): BatchNorm2d(144, eps=1e-05, momentum=0.1, affine=True, track_running_stats=True)
        (relu): ReLU(inplace=True)
        (conv2): Conv2d(144, 144, kernel_size=(3, 3), stride=(1, 1), padding=(1, 1), bias=False)
        (bn2): BatchNorm2d(144, eps=1e-05, momentum=0.1, affine=True, track_running_stats=True)
        (downsample): Sequential(
          (0): Conv2d(288, 144, kernel_size=(1, 1), stride=(1, 1), bias=False)
          (1): BatchNorm2d(144, eps=1e-05, momentum=0.1, affine=True, track_running_stats=True)
        )
      )
      (se): ModuleDict(
        (depth): SEBlock(
          (squeeze): Sequential(
            (0): Linear(in_features=144, out_features=9, bias=True)
            (1): ReLU()
            (2): Linear(in_features=9, out_features=144, bias=True)
            (3): Sigmoid()
          )
        )
        (normals): SEBlock(
          (squeeze): Sequential(
            (0): Linear(in_features=144, out_features=9, bias=True)
            (1): ReLU()
            (2): Linear(in_features=9, out_features=144, bias=True)
            (3): Sigmoid()
          )
        )
      )
    )
    (fpm_scale_2): FPM(
      (non_linear): Sequential(
        (0): BasicBlock(
          (conv1): Conv2d(144, 36, kernel_size=(3, 3), stride=(1, 1), padding=(1, 1), bias=False)
          (bn1): BatchNorm2d(36, eps=1e-05, momentum=0.1, affine=True, track_running_stats=True)
          (relu): ReLU(inplace=True)
          (conv2): Conv2d(36, 36, kernel_size=(3, 3), stride=(1, 1), padding=(1, 1), bias=False)
          (bn2): BatchNorm2d(36, eps=1e-05, momentum=0.1, affine=True, track_running_stats=True)
          (downsample): Sequential(
            (0): Conv2d(144, 36, kernel_size=(1, 1), stride=(1, 1), bias=False)
            (1): BatchNorm2d(36, eps=1e-05, momentum=0.1, affine=True, track_running_stats=True)
          )
        )
        (1): BasicBlock(
          (conv1): Conv2d(36, 36, kernel_size=(3, 3), stride=(1, 1), padding=(1, 1), bias=False)
          (bn1): BatchNorm2d(36, eps=1e-05, momentum=0.1, affine=True, track_running_stats=True)
          (relu): ReLU(inplace=True)
          (conv2): Conv2d(36, 36, kernel_size=(3, 3), stride=(1, 1), padding=(1, 1), bias=False)
          (bn2): BatchNorm2d(36, eps=1e-05, momentum=0.1, affine=True, track_running_stats=True)
        )
        (2): Conv2d(36, 144, kernel_size=(1, 1), stride=(1, 1))
      )
      (dimensionality_reduction): BasicBlock(
        (conv1): Conv2d(144, 72, kernel_size=(3, 3), stride=(1, 1), padding=(1, 1), bias=False)
        (bn1): BatchNorm2d(72, eps=1e-05, momentum=0.1, affine=True, track_running_stats=True)
        (relu): ReLU(inplace=True)
        (conv2): Conv2d(72, 72, kernel_size=(3, 3), stride=(1, 1), padding=(1, 1), bias=False)
        (bn2): BatchNorm2d(72, eps=1e-05, momentum=0.1, affine=True, track_running_stats=True)
        (downsample): Sequential(
          (0): Conv2d(144, 72, kernel_size=(1, 1), stride=(1, 1), bias=False)
          (1): BatchNorm2d(72, eps=1e-05, momentum=0.1, affine=True, track_running_stats=True)
        )
      )
      (se): ModuleDict(
        (depth): SEBlock(
          (squeeze): Sequential(
            (0): Linear(in_features=72, out_features=4, bias=True)
            (1): ReLU()
            (2): Linear(in_features=4, out_features=72, bias=True)
            (3): Sigmoid()
          )
        )
        (normals): SEBlock(
          (squeeze): Sequential(
            (0): Linear(in_features=72, out_features=4, bias=True)
            (1): ReLU()
            (2): Linear(in_features=4, out_features=72, bias=True)
            (3): Sigmoid()
          )
        )
      )
    )
    (fpm_scale_1): FPM(
      (non_linear): Sequential(
        (0): BasicBlock(
          (conv1): Conv2d(72, 18, kernel_size=(3, 3), stride=(1, 1), padding=(1, 1), bias=False)
          (bn1): BatchNorm2d(18, eps=1e-05, momentum=0.1, affine=True, track_running_stats=True)
          (relu): ReLU(inplace=True)
          (conv2): Conv2d(18, 18, kernel_size=(3, 3), stride=(1, 1), padding=(1, 1), bias=False)
          (bn2): BatchNorm2d(18, eps=1e-05, momentum=0.1, affine=True, track_running_stats=True)
          (downsample): Sequential(
            (0): Conv2d(72, 18, kernel_size=(1, 1), stride=(1, 1), bias=False)
            (1): BatchNorm2d(18, eps=1e-05, momentum=0.1, affine=True, track_running_stats=True)
          )
        )
        (1): BasicBlock(
          (conv1): Conv2d(18, 18, kernel_size=(3, 3), stride=(1, 1), padding=(1, 1), bias=False)
          (bn1): BatchNorm2d(18, eps=1e-05, momentum=0.1, affine=True, track_running_stats=True)
          (relu): ReLU(inplace=True)
          (conv2): Conv2d(18, 18, kernel_size=(3, 3), stride=(1, 1), padding=(1, 1), bias=False)
          (bn2): BatchNorm2d(18, eps=1e-05, momentum=0.1, affine=True, track_running_stats=True)
        )
        (2): Conv2d(18, 72, kernel_size=(1, 1), stride=(1, 1))
      )
      (dimensionality_reduction): BasicBlock(
        (conv1): Conv2d(72, 36, kernel_size=(3, 3), stride=(1, 1), padding=(1, 1), bias=False)
        (bn1): BatchNorm2d(36, eps=1e-05, momentum=0.1, affine=True, track_running_stats=True)
        (relu): ReLU(inplace=True)
        (conv2): Conv2d(36, 36, kernel_size=(3, 3), stride=(1, 1), padding=(1, 1), bias=False)
        (bn2): BatchNorm2d(36, eps=1e-05, momentum=0.1, affine=True, track_running_stats=True)
        (downsample): Sequential(
          (0): Conv2d(72, 36, kernel_size=(1, 1), stride=(1, 1), bias=False)
          (1): BatchNorm2d(36, eps=1e-05, momentum=0.1, affine=True, track_running_stats=True)
        )
      )
      (se): ModuleDict(
        (depth): SEBlock(
          (squeeze): Sequential(
            (0): Linear(in_features=36, out_features=2, bias=True)
            (1): ReLU()
            (2): Linear(in_features=2, out_features=36, bias=True)
            (3): Sigmoid()
          )
        )
        (normals): SEBlock(
          (squeeze): Sequential(
            (0): Linear(in_features=36, out_features=2, bias=True)
            (1): ReLU()
            (2): Linear(in_features=2, out_features=36, bias=True)
            (3): Sigmoid()
          )
        )
      )
    )
    (scale_0): InitialTaskPredictionModule(
      (refinement): ModuleDict(
        (depth): Sequential(
          (0): BasicBlock(
            (conv1): Conv2d(54, 18, kernel_size=(3, 3), stride=(1, 1), padding=(1, 1), bias=False)
            (bn1): BatchNorm2d(18, eps=1e-05, momentum=0.1, affine=True, track_running_stats=True)
            (relu): ReLU(inplace=True)
            (conv2): Conv2d(18, 18, kernel_size=(3, 3), stride=(1, 1), padding=(1, 1), bias=False)
            (bn2): BatchNorm2d(18, eps=1e-05, momentum=0.1, affine=True, track_running_stats=True)
            (downsample): Sequential(
              (0): Conv2d(54, 18, kernel_size=(1, 1), stride=(1, 1), bias=False)
              (1): BatchNorm2d(18, eps=1e-05, momentum=0.1, affine=True, track_running_stats=True)
            )
          )
          (1): BasicBlock(
            (conv1): Conv2d(18, 18, kernel_size=(3, 3), stride=(1, 1), padding=(1, 1), bias=False)
            (bn1): BatchNorm2d(18, eps=1e-05, momentum=0.1, affine=True, track_running_stats=True)
            (relu): ReLU(inplace=True)
            (conv2): Conv2d(18, 18, kernel_size=(3, 3), stride=(1, 1), padding=(1, 1), bias=False)
            (bn2): BatchNorm2d(18, eps=1e-05, momentum=0.1, affine=True, track_running_stats=True)
          )
        )
        (normals): Sequential(
          (0): BasicBlock(
            (conv1): Conv2d(54, 18, kernel_size=(3, 3), stride=(1, 1), padding=(1, 1), bias=False)
            (bn1): BatchNorm2d(18, eps=1e-05, momentum=0.1, affine=True, track_running_stats=True)
            (relu): ReLU(inplace=True)
            (conv2): Conv2d(18, 18, kernel_size=(3, 3), stride=(1, 1), padding=(1, 1), bias=False)
            (bn2): BatchNorm2d(18, eps=1e-05, momentum=0.1, affine=True, track_running_stats=True)
            (downsample): Sequential(
              (0): Conv2d(54, 18, kernel_size=(1, 1), stride=(1, 1), bias=False)
              (1): BatchNorm2d(18, eps=1e-05, momentum=0.1, affine=True, track_running_stats=True)
            )
          )
          (1): BasicBlock(
            (conv1): Conv2d(18, 18, kernel_size=(3, 3), stride=(1, 1), padding=(1, 1), bias=False)
            (bn1): BatchNorm2d(18, eps=1e-05, momentum=0.1, affine=True, track_running_stats=True)
            (relu): ReLU(inplace=True)
            (conv2): Conv2d(18, 18, kernel_size=(3, 3), stride=(1, 1), padding=(1, 1), bias=False)
            (bn2): BatchNorm2d(18, eps=1e-05, momentum=0.1, affine=True, track_running_stats=True)
          )
        )
      )
      (decoders): ModuleDict(
        (depth): Conv2d(18, 1, kernel_size=(1, 1), stride=(1, 1))
        (normals): Conv2d(18, 3, kernel_size=(1, 1), stride=(1, 1))
      )
    )
    (scale_1): InitialTaskPredictionModule(
      (refinement): ModuleDict(
        (depth): Sequential(
          (0): BasicBlock(
            (conv1): Conv2d(108, 36, kernel_size=(3, 3), stride=(1, 1), padding=(1, 1), bias=False)
            (bn1): BatchNorm2d(36, eps=1e-05, momentum=0.1, affine=True, track_running_stats=True)
            (relu): ReLU(inplace=True)
            (conv2): Conv2d(36, 36, kernel_size=(3, 3), stride=(1, 1), padding=(1, 1), bias=False)
            (bn2): BatchNorm2d(36, eps=1e-05, momentum=0.1, affine=True, track_running_stats=True)
            (downsample): Sequential(
              (0): Conv2d(108, 36, kernel_size=(1, 1), stride=(1, 1), bias=False)
              (1): BatchNorm2d(36, eps=1e-05, momentum=0.1, affine=True, track_running_stats=True)
            )
          )
          (1): BasicBlock(
            (conv1): Conv2d(36, 36, kernel_size=(3, 3), stride=(1, 1), padding=(1, 1), bias=False)
            (bn1): BatchNorm2d(36, eps=1e-05, momentum=0.1, affine=True, track_running_stats=True)
            (relu): ReLU(inplace=True)
            (conv2): Conv2d(36, 36, kernel_size=(3, 3), stride=(1, 1), padding=(1, 1), bias=False)
            (bn2): BatchNorm2d(36, eps=1e-05, momentum=0.1, affine=True, track_running_stats=True)
          )
        )
        (normals): Sequential(
          (0): BasicBlock(
            (conv1): Conv2d(108, 36, kernel_size=(3, 3), stride=(1, 1), padding=(1, 1), bias=False)
            (bn1): BatchNorm2d(36, eps=1e-05, momentum=0.1, affine=True, track_running_stats=True)
            (relu): ReLU(inplace=True)
            (conv2): Conv2d(36, 36, kernel_size=(3, 3), stride=(1, 1), padding=(1, 1), bias=False)
            (bn2): BatchNorm2d(36, eps=1e-05, momentum=0.1, affine=True, track_running_stats=True)
            (downsample): Sequential(
              (0): Conv2d(108, 36, kernel_size=(1, 1), stride=(1, 1), bias=False)
              (1): BatchNorm2d(36, eps=1e-05, momentum=0.1, affine=True, track_running_stats=True)
            )
          )
          (1): BasicBlock(
            (conv1): Conv2d(36, 36, kernel_size=(3, 3), stride=(1, 1), padding=(1, 1), bias=False)
            (bn1): BatchNorm2d(36, eps=1e-05, momentum=0.1, affine=True, track_running_stats=True)
            (relu): ReLU(inplace=True)
            (conv2): Conv2d(36, 36, kernel_size=(3, 3), stride=(1, 1), padding=(1, 1), bias=False)
            (bn2): BatchNorm2d(36, eps=1e-05, momentum=0.1, affine=True, track_running_stats=True)
          )
        )
      )
      (decoders): ModuleDict(
        (depth): Conv2d(36, 1, kernel_size=(1, 1), stride=(1, 1))
        (normals): Conv2d(36, 3, kernel_size=(1, 1), stride=(1, 1))
      )
    )
    (scale_2): InitialTaskPredictionModule(
      (refinement): ModuleDict(
        (depth): Sequential(
          (0): BasicBlock(
            (conv1): Conv2d(216, 72, kernel_size=(3, 3), stride=(1, 1), padding=(1, 1), bias=False)
            (bn1): BatchNorm2d(72, eps=1e-05, momentum=0.1, affine=True, track_running_stats=True)
            (relu): ReLU(inplace=True)
            (conv2): Conv2d(72, 72, kernel_size=(3, 3), stride=(1, 1), padding=(1, 1), bias=False)
            (bn2): BatchNorm2d(72, eps=1e-05, momentum=0.1, affine=True, track_running_stats=True)
            (downsample): Sequential(
              (0): Conv2d(216, 72, kernel_size=(1, 1), stride=(1, 1), bias=False)
              (1): BatchNorm2d(72, eps=1e-05, momentum=0.1, affine=True, track_running_stats=True)
            )
          )
          (1): BasicBlock(
            (conv1): Conv2d(72, 72, kernel_size=(3, 3), stride=(1, 1), padding=(1, 1), bias=False)
            (bn1): BatchNorm2d(72, eps=1e-05, momentum=0.1, affine=True, track_running_stats=True)
            (relu): ReLU(inplace=True)
            (conv2): Conv2d(72, 72, kernel_size=(3, 3), stride=(1, 1), padding=(1, 1), bias=False)
            (bn2): BatchNorm2d(72, eps=1e-05, momentum=0.1, affine=True, track_running_stats=True)
          )
        )
        (normals): Sequential(
          (0): BasicBlock(
            (conv1): Conv2d(216, 72, kernel_size=(3, 3), stride=(1, 1), padding=(1, 1), bias=False)
            (bn1): BatchNorm2d(72, eps=1e-05, momentum=0.1, affine=True, track_running_stats=True)
            (relu): ReLU(inplace=True)
            (conv2): Conv2d(72, 72, kernel_size=(3, 3), stride=(1, 1), padding=(1, 1), bias=False)
            (bn2): BatchNorm2d(72, eps=1e-05, momentum=0.1, affine=True, track_running_stats=True)
            (downsample): Sequential(
              (0): Conv2d(216, 72, kernel_size=(1, 1), stride=(1, 1), bias=False)
              (1): BatchNorm2d(72, eps=1e-05, momentum=0.1, affine=True, track_running_stats=True)
            )
          )
          (1): BasicBlock(
            (conv1): Conv2d(72, 72, kernel_size=(3, 3), stride=(1, 1), padding=(1, 1), bias=False)
            (bn1): BatchNorm2d(72, eps=1e-05, momentum=0.1, affine=True, track_running_stats=True)
            (relu): ReLU(inplace=True)
            (conv2): Conv2d(72, 72, kernel_size=(3, 3), stride=(1, 1), padding=(1, 1), bias=False)
            (bn2): BatchNorm2d(72, eps=1e-05, momentum=0.1, affine=True, track_running_stats=True)
          )
        )
      )
      (decoders): ModuleDict(
        (depth): Conv2d(72, 1, kernel_size=(1, 1), stride=(1, 1))
        (normals): Conv2d(72, 3, kernel_size=(1, 1), stride=(1, 1))
      )
    )
    (scale_3): InitialTaskPredictionModule(
      (refinement): ModuleDict(
        (depth): Sequential(
          (0): BasicBlock(
            (conv1): Conv2d(144, 144, kernel_size=(3, 3), stride=(1, 1), padding=(1, 1), bias=False)
            (bn1): BatchNorm2d(144, eps=1e-05, momentum=0.1, affine=True, track_running_stats=True)
            (relu): ReLU(inplace=True)
            (conv2): Conv2d(144, 144, kernel_size=(3, 3), stride=(1, 1), padding=(1, 1), bias=False)
            (bn2): BatchNorm2d(144, eps=1e-05, momentum=0.1, affine=True, track_running_stats=True)
          )
          (1): BasicBlock(
            (conv1): Conv2d(144, 144, kernel_size=(3, 3), stride=(1, 1), padding=(1, 1), bias=False)
            (bn1): BatchNorm2d(144, eps=1e-05, momentum=0.1, affine=True, track_running_stats=True)
            (relu): ReLU(inplace=True)
            (conv2): Conv2d(144, 144, kernel_size=(3, 3), stride=(1, 1), padding=(1, 1), bias=False)
            (bn2): BatchNorm2d(144, eps=1e-05, momentum=0.1, affine=True, track_running_stats=True)
          )
        )
        (normals): Sequential(
          (0): BasicBlock(
            (conv1): Conv2d(144, 144, kernel_size=(3, 3), stride=(1, 1), padding=(1, 1), bias=False)
            (bn1): BatchNorm2d(144, eps=1e-05, momentum=0.1, affine=True, track_running_stats=True)
            (relu): ReLU(inplace=True)
            (conv2): Conv2d(144, 144, kernel_size=(3, 3), stride=(1, 1), padding=(1, 1), bias=False)
            (bn2): BatchNorm2d(144, eps=1e-05, momentum=0.1, affine=True, track_running_stats=True)
          )
          (1): BasicBlock(
            (conv1): Conv2d(144, 144, kernel_size=(3, 3), stride=(1, 1), padding=(1, 1), bias=False)
            (bn1): BatchNorm2d(144, eps=1e-05, momentum=0.1, affine=True, track_running_stats=True)
            (relu): ReLU(inplace=True)
            (conv2): Conv2d(144, 144, kernel_size=(3, 3), stride=(1, 1), padding=(1, 1), bias=False)
            (bn2): BatchNorm2d(144, eps=1e-05, momentum=0.1, affine=True, track_running_stats=True)
          )
        )
      )
      (decoders): ModuleDict(
        (depth): Conv2d(144, 1, kernel_size=(1, 1), stride=(1, 1))
        (normals): Conv2d(144, 3, kernel_size=(1, 1), stride=(1, 1))
      )
    )
    (distillation_scale_0): MultiTaskDistillationModule(
      (self_attention): ModuleDict(
        (depth): ModuleDict(
          (normals): SABlock(
            (attention): Sequential(
              (0): Conv2d(18, 18, kernel_size=(3, 3), stride=(1, 1), padding=(1, 1), bias=False)
              (1): Sigmoid()
            )
            (conv): Conv2d(18, 18, kernel_size=(3, 3), stride=(1, 1), padding=(1, 1), bias=False)
          )
        )
        (normals): ModuleDict(
          (depth): SABlock(
            (attention): Sequential(
              (0): Conv2d(18, 18, kernel_size=(3, 3), stride=(1, 1), padding=(1, 1), bias=False)
              (1): Sigmoid()
            )
            (conv): Conv2d(18, 18, kernel_size=(3, 3), stride=(1, 1), padding=(1, 1), bias=False)
          )
        )
      )
    )
    (distillation_scale_1): MultiTaskDistillationModule(
      (self_attention): ModuleDict(
        (depth): ModuleDict(
          (normals): SABlock(
            (attention): Sequential(
              (0): Conv2d(36, 36, kernel_size=(3, 3), stride=(1, 1), padding=(1, 1), bias=False)
              (1): Sigmoid()
            )
            (conv): Conv2d(36, 36, kernel_size=(3, 3), stride=(1, 1), padding=(1, 1), bias=False)
          )
        )
        (normals): ModuleDict(
          (depth): SABlock(
            (attention): Sequential(
              (0): Conv2d(36, 36, kernel_size=(3, 3), stride=(1, 1), padding=(1, 1), bias=False)
              (1): Sigmoid()
            )
            (conv): Conv2d(36, 36, kernel_size=(3, 3), stride=(1, 1), padding=(1, 1), bias=False)
          )
        )
      )
    )
    (distillation_scale_2): MultiTaskDistillationModule(
      (self_attention): ModuleDict(
        (depth): ModuleDict(
          (normals): SABlock(
            (attention): Sequential(
              (0): Conv2d(72, 72, kernel_size=(3, 3), stride=(1, 1), padding=(1, 1), bias=False)
              (1): Sigmoid()
            )
            (conv): Conv2d(72, 72, kernel_size=(3, 3), stride=(1, 1), padding=(1, 1), bias=False)
          )
        )
        (normals): ModuleDict(
          (depth): SABlock(
            (attention): Sequential(
              (0): Conv2d(72, 72, kernel_size=(3, 3), stride=(1, 1), padding=(1, 1), bias=False)
              (1): Sigmoid()
            )
            (conv): Conv2d(72, 72, kernel_size=(3, 3), stride=(1, 1), padding=(1, 1), bias=False)
          )
        )
      )
    )
    (distillation_scale_3): MultiTaskDistillationModule(
      (self_attention): ModuleDict(
        (depth): ModuleDict(
          (normals): SABlock(
            (attention): Sequential(
              (0): Conv2d(144, 144, kernel_size=(3, 3), stride=(1, 1), padding=(1, 1), bias=False)
              (1): Sigmoid()
            )
            (conv): Conv2d(144, 144, kernel_size=(3, 3), stride=(1, 1), padding=(1, 1), bias=False)
          )
        )
        (normals): ModuleDict(
          (depth): SABlock(
            (attention): Sequential(
              (0): Conv2d(144, 144, kernel_size=(3, 3), stride=(1, 1), padding=(1, 1), bias=False)
              (1): Sigmoid()
            )
            (conv): Conv2d(144, 144, kernel_size=(3, 3), stride=(1, 1), padding=(1, 1), bias=False)
          )
        )
      )
    )
    (heads): ModuleDict(
      (depth): HighResolutionHead(
        (last_layer): Sequential(
          (0): Conv2d(270, 270, kernel_size=(1, 1), stride=(1, 1))
          (1): BatchNorm2d(270, eps=1e-05, momentum=0.1, affine=True, track_running_stats=True)
          (2): ReLU()
          (3): Conv2d(270, 1, kernel_size=(1, 1), stride=(1, 1))
        )
      )
      (normals): HighResolutionHead(
        (last_layer): Sequential(
          (0): Conv2d(270, 270, kernel_size=(1, 1), stride=(1, 1))
          (1): BatchNorm2d(270, eps=1e-05, momentum=0.1, affine=True, track_running_stats=True)
          (2): ReLU()
          (3): Conv2d(270, 3, kernel_size=(1, 1), stride=(1, 1))
        )
      )
    )
  )
  (1): HighResolutionNet(
    (conv1): Conv2d(3, 64, kernel_size=(3, 3), stride=(2, 2), padding=(1, 1), bias=False)
    (bn1): BatchNorm2d(64, eps=1e-05, momentum=0.01, affine=True, track_running_stats=True)
    (conv2): Conv2d(64, 64, kernel_size=(3, 3), stride=(2, 2), padding=(1, 1), bias=False)
    (bn2): BatchNorm2d(64, eps=1e-05, momentum=0.01, affine=True, track_running_stats=True)
    (relu): ReLU()
    (layer1): Sequential(
      (0): Bottleneck(
        (conv1): Conv2d(64, 64, kernel_size=(1, 1), stride=(1, 1), bias=False)
        (bn1): BatchNorm2d(64, eps=1e-05, momentum=0.01, affine=True, track_running_stats=True)
        (conv2): Conv2d(64, 64, kernel_size=(3, 3), stride=(1, 1), padding=(1, 1), bias=False)
        (bn2): BatchNorm2d(64, eps=1e-05, momentum=0.01, affine=True, track_running_stats=True)
        (conv3): Conv2d(64, 256, kernel_size=(1, 1), stride=(1, 1), bias=False)
        (bn3): BatchNorm2d(256, eps=1e-05, momentum=0.01, affine=True, track_running_stats=True)
        (relu): ReLU()
        (downsample): Sequential(
          (0): Conv2d(64, 256, kernel_size=(1, 1), stride=(1, 1), bias=False)
          (1): BatchNorm2d(256, eps=1e-05, momentum=0.01, affine=True, track_running_stats=True)
        )
      )
      (1): Bottleneck(
        (conv1): Conv2d(256, 64, kernel_size=(1, 1), stride=(1, 1), bias=False)
        (bn1): BatchNorm2d(64, eps=1e-05, momentum=0.01, affine=True, track_running_stats=True)
        (conv2): Conv2d(64, 64, kernel_size=(3, 3), stride=(1, 1), padding=(1, 1), bias=False)
        (bn2): BatchNorm2d(64, eps=1e-05, momentum=0.01, affine=True, track_running_stats=True)
        (conv3): Conv2d(64, 256, kernel_size=(1, 1), stride=(1, 1), bias=False)
        (bn3): BatchNorm2d(256, eps=1e-05, momentum=0.01, affine=True, track_running_stats=True)
        (relu): ReLU()
      )
    )
    (transition1): ModuleList(
      (0): Sequential(
        (0): Conv2d(256, 18, kernel_size=(3, 3), stride=(1, 1), padding=(1, 1), bias=False)
        (1): BatchNorm2d(18, eps=1e-05, momentum=0.01, affine=True, track_running_stats=True)
        (2): ReLU()
      )
      (1): Sequential(
        (0): Sequential(
          (0): Conv2d(256, 36, kernel_size=(3, 3), stride=(2, 2), padding=(1, 1), bias=False)
          (1): BatchNorm2d(36, eps=1e-05, momentum=0.01, affine=True, track_running_stats=True)
          (2): ReLU()
        )
      )
    )
    (stage2): Sequential(
      (0): HighResolutionModule(
        (branches): ModuleList(
          (0): Sequential(
            (0): BasicBlock(
              (conv1): Conv2d(18, 18, kernel_size=(3, 3), stride=(1, 1), padding=(1, 1), bias=False)
              (bn1): BatchNorm2d(18, eps=1e-05, momentum=0.01, affine=True, track_running_stats=True)
              (relu): ReLU()
              (conv2): Conv2d(18, 18, kernel_size=(3, 3), stride=(1, 1), padding=(1, 1), bias=False)
              (bn2): BatchNorm2d(18, eps=1e-05, momentum=0.01, affine=True, track_running_stats=True)
            )
            (1): BasicBlock(
              (conv1): Conv2d(18, 18, kernel_size=(3, 3), stride=(1, 1), padding=(1, 1), bias=False)
              (bn1): BatchNorm2d(18, eps=1e-05, momentum=0.01, affine=True, track_running_stats=True)
              (relu): ReLU()
              (conv2): Conv2d(18, 18, kernel_size=(3, 3), stride=(1, 1), padding=(1, 1), bias=False)
              (bn2): BatchNorm2d(18, eps=1e-05, momentum=0.01, affine=True, track_running_stats=True)
            )
          )
          (1): Sequential(
            (0): BasicBlock(
              (conv1): Conv2d(36, 36, kernel_size=(3, 3), stride=(1, 1), padding=(1, 1), bias=False)
              (bn1): BatchNorm2d(36, eps=1e-05, momentum=0.01, affine=True, track_running_stats=True)
              (relu): ReLU()
              (conv2): Conv2d(36, 36, kernel_size=(3, 3), stride=(1, 1), padding=(1, 1), bias=False)
              (bn2): BatchNorm2d(36, eps=1e-05, momentum=0.01, affine=True, track_running_stats=True)
            )
            (1): BasicBlock(
              (conv1): Conv2d(36, 36, kernel_size=(3, 3), stride=(1, 1), padding=(1, 1), bias=False)
              (bn1): BatchNorm2d(36, eps=1e-05, momentum=0.01, affine=True, track_running_stats=True)
              (relu): ReLU()
              (conv2): Conv2d(36, 36, kernel_size=(3, 3), stride=(1, 1), padding=(1, 1), bias=False)
              (bn2): BatchNorm2d(36, eps=1e-05, momentum=0.01, affine=True, track_running_stats=True)
            )
          )
        )
        (fuse_layers): ModuleList(
          (0): ModuleList(
            (0): None
            (1): Sequential(
              (0): Conv2d(36, 18, kernel_size=(1, 1), stride=(1, 1), bias=False)
              (1): BatchNorm2d(18, eps=1e-05, momentum=0.01, affine=True, track_running_stats=True)
            )
          )
          (1): ModuleList(
            (0): Sequential(
              (0): Sequential(
                (0): Conv2d(18, 36, kernel_size=(3, 3), stride=(2, 2), padding=(1, 1), bias=False)
                (1): BatchNorm2d(36, eps=1e-05, momentum=0.01, affine=True, track_running_stats=True)
              )
            )
            (1): None
          )
        )
        (relu): ReLU()
      )
    )
    (transition2): ModuleList(
      (0): None
      (1): None
      (2): Sequential(
        (0): Sequential(
          (0): Conv2d(36, 72, kernel_size=(3, 3), stride=(2, 2), padding=(1, 1), bias=False)
          (1): BatchNorm2d(72, eps=1e-05, momentum=0.01, affine=True, track_running_stats=True)
          (2): ReLU()
        )
      )
    )
    (stage3): Sequential(
      (0): HighResolutionModule(
        (branches): ModuleList(
          (0): Sequential(
            (0): BasicBlock(
              (conv1): Conv2d(18, 18, kernel_size=(3, 3), stride=(1, 1), padding=(1, 1), bias=False)
              (bn1): BatchNorm2d(18, eps=1e-05, momentum=0.01, affine=True, track_running_stats=True)
              (relu): ReLU()
              (conv2): Conv2d(18, 18, kernel_size=(3, 3), stride=(1, 1), padding=(1, 1), bias=False)
              (bn2): BatchNorm2d(18, eps=1e-05, momentum=0.01, affine=True, track_running_stats=True)
            )
            (1): BasicBlock(
              (conv1): Conv2d(18, 18, kernel_size=(3, 3), stride=(1, 1), padding=(1, 1), bias=False)
              (bn1): BatchNorm2d(18, eps=1e-05, momentum=0.01, affine=True, track_running_stats=True)
              (relu): ReLU()
              (conv2): Conv2d(18, 18, kernel_size=(3, 3), stride=(1, 1), padding=(1, 1), bias=False)
              (bn2): BatchNorm2d(18, eps=1e-05, momentum=0.01, affine=True, track_running_stats=True)
            )
          )
          (1): Sequential(
            (0): BasicBlock(
              (conv1): Conv2d(36, 36, kernel_size=(3, 3), stride=(1, 1), padding=(1, 1), bias=False)
              (bn1): BatchNorm2d(36, eps=1e-05, momentum=0.01, affine=True, track_running_stats=True)
              (relu): ReLU()
              (conv2): Conv2d(36, 36, kernel_size=(3, 3), stride=(1, 1), padding=(1, 1), bias=False)
              (bn2): BatchNorm2d(36, eps=1e-05, momentum=0.01, affine=True, track_running_stats=True)
            )
            (1): BasicBlock(
              (conv1): Conv2d(36, 36, kernel_size=(3, 3), stride=(1, 1), padding=(1, 1), bias=False)
              (bn1): BatchNorm2d(36, eps=1e-05, momentum=0.01, affine=True, track_running_stats=True)
              (relu): ReLU()
              (conv2): Conv2d(36, 36, kernel_size=(3, 3), stride=(1, 1), padding=(1, 1), bias=False)
              (bn2): BatchNorm2d(36, eps=1e-05, momentum=0.01, affine=True, track_running_stats=True)
            )
          )
          (2): Sequential(
            (0): BasicBlock(
              (conv1): Conv2d(72, 72, kernel_size=(3, 3), stride=(1, 1), padding=(1, 1), bias=False)
              (bn1): BatchNorm2d(72, eps=1e-05, momentum=0.01, affine=True, track_running_stats=True)
              (relu): ReLU()
              (conv2): Conv2d(72, 72, kernel_size=(3, 3), stride=(1, 1), padding=(1, 1), bias=False)
              (bn2): BatchNorm2d(72, eps=1e-05, momentum=0.01, affine=True, track_running_stats=True)
            )
            (1): BasicBlock(
              (conv1): Conv2d(72, 72, kernel_size=(3, 3), stride=(1, 1), padding=(1, 1), bias=False)
              (bn1): BatchNorm2d(72, eps=1e-05, momentum=0.01, affine=True, track_running_stats=True)
              (relu): ReLU()
              (conv2): Conv2d(72, 72, kernel_size=(3, 3), stride=(1, 1), padding=(1, 1), bias=False)
              (bn2): BatchNorm2d(72, eps=1e-05, momentum=0.01, affine=True, track_running_stats=True)
            )
          )
        )
        (fuse_layers): ModuleList(
          (0): ModuleList(
            (0): None
            (1): Sequential(
              (0): Conv2d(36, 18, kernel_size=(1, 1), stride=(1, 1), bias=False)
              (1): BatchNorm2d(18, eps=1e-05, momentum=0.01, affine=True, track_running_stats=True)
            )
            (2): Sequential(
              (0): Conv2d(72, 18, kernel_size=(1, 1), stride=(1, 1), bias=False)
              (1): BatchNorm2d(18, eps=1e-05, momentum=0.01, affine=True, track_running_stats=True)
            )
          )
          (1): ModuleList(
            (0): Sequential(
              (0): Sequential(
                (0): Conv2d(18, 36, kernel_size=(3, 3), stride=(2, 2), padding=(1, 1), bias=False)
                (1): BatchNorm2d(36, eps=1e-05, momentum=0.01, affine=True, track_running_stats=True)
              )
            )
            (1): None
            (2): Sequential(
              (0): Conv2d(72, 36, kernel_size=(1, 1), stride=(1, 1), bias=False)
              (1): BatchNorm2d(36, eps=1e-05, momentum=0.01, affine=True, track_running_stats=True)
            )
          )
          (2): ModuleList(
            (0): Sequential(
              (0): Sequential(
                (0): Conv2d(18, 18, kernel_size=(3, 3), stride=(2, 2), padding=(1, 1), bias=False)
                (1): BatchNorm2d(18, eps=1e-05, momentum=0.01, affine=True, track_running_stats=True)
                (2): ReLU()
              )
              (1): Sequential(
                (0): Conv2d(18, 72, kernel_size=(3, 3), stride=(2, 2), padding=(1, 1), bias=False)
                (1): BatchNorm2d(72, eps=1e-05, momentum=0.01, affine=True, track_running_stats=True)
              )
            )
            (1): Sequential(
              (0): Sequential(
                (0): Conv2d(36, 72, kernel_size=(3, 3), stride=(2, 2), padding=(1, 1), bias=False)
                (1): BatchNorm2d(72, eps=1e-05, momentum=0.01, affine=True, track_running_stats=True)
              )
            )
            (2): None
          )
        )
        (relu): ReLU()
      )
      (1): HighResolutionModule(
        (branches): ModuleList(
          (0): Sequential(
            (0): BasicBlock(
              (conv1): Conv2d(18, 18, kernel_size=(3, 3), stride=(1, 1), padding=(1, 1), bias=False)
              (bn1): BatchNorm2d(18, eps=1e-05, momentum=0.01, affine=True, track_running_stats=True)
              (relu): ReLU()
              (conv2): Conv2d(18, 18, kernel_size=(3, 3), stride=(1, 1), padding=(1, 1), bias=False)
              (bn2): BatchNorm2d(18, eps=1e-05, momentum=0.01, affine=True, track_running_stats=True)
            )
            (1): BasicBlock(
              (conv1): Conv2d(18, 18, kernel_size=(3, 3), stride=(1, 1), padding=(1, 1), bias=False)
              (bn1): BatchNorm2d(18, eps=1e-05, momentum=0.01, affine=True, track_running_stats=True)
              (relu): ReLU()
              (conv2): Conv2d(18, 18, kernel_size=(3, 3), stride=(1, 1), padding=(1, 1), bias=False)
              (bn2): BatchNorm2d(18, eps=1e-05, momentum=0.01, affine=True, track_running_stats=True)
            )
          )
          (1): Sequential(
            (0): BasicBlock(
              (conv1): Conv2d(36, 36, kernel_size=(3, 3), stride=(1, 1), padding=(1, 1), bias=False)
              (bn1): BatchNorm2d(36, eps=1e-05, momentum=0.01, affine=True, track_running_stats=True)
              (relu): ReLU()
              (conv2): Conv2d(36, 36, kernel_size=(3, 3), stride=(1, 1), padding=(1, 1), bias=False)
              (bn2): BatchNorm2d(36, eps=1e-05, momentum=0.01, affine=True, track_running_stats=True)
            )
            (1): BasicBlock(
              (conv1): Conv2d(36, 36, kernel_size=(3, 3), stride=(1, 1), padding=(1, 1), bias=False)
              (bn1): BatchNorm2d(36, eps=1e-05, momentum=0.01, affine=True, track_running_stats=True)
              (relu): ReLU()
              (conv2): Conv2d(36, 36, kernel_size=(3, 3), stride=(1, 1), padding=(1, 1), bias=False)
              (bn2): BatchNorm2d(36, eps=1e-05, momentum=0.01, affine=True, track_running_stats=True)
            )
          )
          (2): Sequential(
            (0): BasicBlock(
              (conv1): Conv2d(72, 72, kernel_size=(3, 3), stride=(1, 1), padding=(1, 1), bias=False)
              (bn1): BatchNorm2d(72, eps=1e-05, momentum=0.01, affine=True, track_running_stats=True)
              (relu): ReLU()
              (conv2): Conv2d(72, 72, kernel_size=(3, 3), stride=(1, 1), padding=(1, 1), bias=False)
              (bn2): BatchNorm2d(72, eps=1e-05, momentum=0.01, affine=True, track_running_stats=True)
            )
            (1): BasicBlock(
              (conv1): Conv2d(72, 72, kernel_size=(3, 3), stride=(1, 1), padding=(1, 1), bias=False)
              (bn1): BatchNorm2d(72, eps=1e-05, momentum=0.01, affine=True, track_running_stats=True)
              (relu): ReLU()
              (conv2): Conv2d(72, 72, kernel_size=(3, 3), stride=(1, 1), padding=(1, 1), bias=False)
              (bn2): BatchNorm2d(72, eps=1e-05, momentum=0.01, affine=True, track_running_stats=True)
            )
          )
        )
        (fuse_layers): ModuleList(
          (0): ModuleList(
            (0): None
            (1): Sequential(
              (0): Conv2d(36, 18, kernel_size=(1, 1), stride=(1, 1), bias=False)
              (1): BatchNorm2d(18, eps=1e-05, momentum=0.01, affine=True, track_running_stats=True)
            )
            (2): Sequential(
              (0): Conv2d(72, 18, kernel_size=(1, 1), stride=(1, 1), bias=False)
              (1): BatchNorm2d(18, eps=1e-05, momentum=0.01, affine=True, track_running_stats=True)
            )
          )
          (1): ModuleList(
            (0): Sequential(
              (0): Sequential(
                (0): Conv2d(18, 36, kernel_size=(3, 3), stride=(2, 2), padding=(1, 1), bias=False)
                (1): BatchNorm2d(36, eps=1e-05, momentum=0.01, affine=True, track_running_stats=True)
              )
            )
            (1): None
            (2): Sequential(
              (0): Conv2d(72, 36, kernel_size=(1, 1), stride=(1, 1), bias=False)
              (1): BatchNorm2d(36, eps=1e-05, momentum=0.01, affine=True, track_running_stats=True)
            )
          )
          (2): ModuleList(
            (0): Sequential(
              (0): Sequential(
                (0): Conv2d(18, 18, kernel_size=(3, 3), stride=(2, 2), padding=(1, 1), bias=False)
                (1): BatchNorm2d(18, eps=1e-05, momentum=0.01, affine=True, track_running_stats=True)
                (2): ReLU()
              )
              (1): Sequential(
                (0): Conv2d(18, 72, kernel_size=(3, 3), stride=(2, 2), padding=(1, 1), bias=False)
                (1): BatchNorm2d(72, eps=1e-05, momentum=0.01, affine=True, track_running_stats=True)
              )
            )
            (1): Sequential(
              (0): Sequential(
                (0): Conv2d(36, 72, kernel_size=(3, 3), stride=(2, 2), padding=(1, 1), bias=False)
                (1): BatchNorm2d(72, eps=1e-05, momentum=0.01, affine=True, track_running_stats=True)
              )
            )
            (2): None
          )
        )
        (relu): ReLU()
      )
      (2): HighResolutionModule(
        (branches): ModuleList(
          (0): Sequential(
            (0): BasicBlock(
              (conv1): Conv2d(18, 18, kernel_size=(3, 3), stride=(1, 1), padding=(1, 1), bias=False)
              (bn1): BatchNorm2d(18, eps=1e-05, momentum=0.01, affine=True, track_running_stats=True)
              (relu): ReLU()
              (conv2): Conv2d(18, 18, kernel_size=(3, 3), stride=(1, 1), padding=(1, 1), bias=False)
              (bn2): BatchNorm2d(18, eps=1e-05, momentum=0.01, affine=True, track_running_stats=True)
            )
            (1): BasicBlock(
              (conv1): Conv2d(18, 18, kernel_size=(3, 3), stride=(1, 1), padding=(1, 1), bias=False)
              (bn1): BatchNorm2d(18, eps=1e-05, momentum=0.01, affine=True, track_running_stats=True)
              (relu): ReLU()
              (conv2): Conv2d(18, 18, kernel_size=(3, 3), stride=(1, 1), padding=(1, 1), bias=False)
              (bn2): BatchNorm2d(18, eps=1e-05, momentum=0.01, affine=True, track_running_stats=True)
            )
          )
          (1): Sequential(
            (0): BasicBlock(
              (conv1): Conv2d(36, 36, kernel_size=(3, 3), stride=(1, 1), padding=(1, 1), bias=False)
              (bn1): BatchNorm2d(36, eps=1e-05, momentum=0.01, affine=True, track_running_stats=True)
              (relu): ReLU()
              (conv2): Conv2d(36, 36, kernel_size=(3, 3), stride=(1, 1), padding=(1, 1), bias=False)
              (bn2): BatchNorm2d(36, eps=1e-05, momentum=0.01, affine=True, track_running_stats=True)
            )
            (1): BasicBlock(
              (conv1): Conv2d(36, 36, kernel_size=(3, 3), stride=(1, 1), padding=(1, 1), bias=False)
              (bn1): BatchNorm2d(36, eps=1e-05, momentum=0.01, affine=True, track_running_stats=True)
              (relu): ReLU()
              (conv2): Conv2d(36, 36, kernel_size=(3, 3), stride=(1, 1), padding=(1, 1), bias=False)
              (bn2): BatchNorm2d(36, eps=1e-05, momentum=0.01, affine=True, track_running_stats=True)
            )
          )
          (2): Sequential(
            (0): BasicBlock(
              (conv1): Conv2d(72, 72, kernel_size=(3, 3), stride=(1, 1), padding=(1, 1), bias=False)
              (bn1): BatchNorm2d(72, eps=1e-05, momentum=0.01, affine=True, track_running_stats=True)
              (relu): ReLU()
              (conv2): Conv2d(72, 72, kernel_size=(3, 3), stride=(1, 1), padding=(1, 1), bias=False)
              (bn2): BatchNorm2d(72, eps=1e-05, momentum=0.01, affine=True, track_running_stats=True)
            )
            (1): BasicBlock(
              (conv1): Conv2d(72, 72, kernel_size=(3, 3), stride=(1, 1), padding=(1, 1), bias=False)
              (bn1): BatchNorm2d(72, eps=1e-05, momentum=0.01, affine=True, track_running_stats=True)
              (relu): ReLU()
              (conv2): Conv2d(72, 72, kernel_size=(3, 3), stride=(1, 1), padding=(1, 1), bias=False)
              (bn2): BatchNorm2d(72, eps=1e-05, momentum=0.01, affine=True, track_running_stats=True)
            )
          )
        )
        (fuse_layers): ModuleList(
          (0): ModuleList(
            (0): None
            (1): Sequential(
              (0): Conv2d(36, 18, kernel_size=(1, 1), stride=(1, 1), bias=False)
              (1): BatchNorm2d(18, eps=1e-05, momentum=0.01, affine=True, track_running_stats=True)
            )
            (2): Sequential(
              (0): Conv2d(72, 18, kernel_size=(1, 1), stride=(1, 1), bias=False)
              (1): BatchNorm2d(18, eps=1e-05, momentum=0.01, affine=True, track_running_stats=True)
            )
          )
          (1): ModuleList(
            (0): Sequential(
              (0): Sequential(
                (0): Conv2d(18, 36, kernel_size=(3, 3), stride=(2, 2), padding=(1, 1), bias=False)
                (1): BatchNorm2d(36, eps=1e-05, momentum=0.01, affine=True, track_running_stats=True)
              )
            )
            (1): None
            (2): Sequential(
              (0): Conv2d(72, 36, kernel_size=(1, 1), stride=(1, 1), bias=False)
              (1): BatchNorm2d(36, eps=1e-05, momentum=0.01, affine=True, track_running_stats=True)
            )
          )
          (2): ModuleList(
            (0): Sequential(
              (0): Sequential(
                (0): Conv2d(18, 18, kernel_size=(3, 3), stride=(2, 2), padding=(1, 1), bias=False)
                (1): BatchNorm2d(18, eps=1e-05, momentum=0.01, affine=True, track_running_stats=True)
                (2): ReLU()
              )
              (1): Sequential(
                (0): Conv2d(18, 72, kernel_size=(3, 3), stride=(2, 2), padding=(1, 1), bias=False)
                (1): BatchNorm2d(72, eps=1e-05, momentum=0.01, affine=True, track_running_stats=True)
              )
            )
            (1): Sequential(
              (0): Sequential(
                (0): Conv2d(36, 72, kernel_size=(3, 3), stride=(2, 2), padding=(1, 1), bias=False)
                (1): BatchNorm2d(72, eps=1e-05, momentum=0.01, affine=True, track_running_stats=True)
              )
            )
            (2): None
          )
        )
        (relu): ReLU()
      )
    )
    (transition3): ModuleList(
      (0): None
      (1): None
      (2): None
      (3): Sequential(
        (0): Sequential(
          (0): Conv2d(72, 144, kernel_size=(3, 3), stride=(2, 2), padding=(1, 1), bias=False)
          (1): BatchNorm2d(144, eps=1e-05, momentum=0.01, affine=True, track_running_stats=True)
          (2): ReLU()
        )
      )
    )
    (stage4): Sequential(
      (0): HighResolutionModule(
        (branches): ModuleList(
          (0): Sequential(
            (0): BasicBlock(
              (conv1): Conv2d(18, 18, kernel_size=(3, 3), stride=(1, 1), padding=(1, 1), bias=False)
              (bn1): BatchNorm2d(18, eps=1e-05, momentum=0.01, affine=True, track_running_stats=True)
              (relu): ReLU()
              (conv2): Conv2d(18, 18, kernel_size=(3, 3), stride=(1, 1), padding=(1, 1), bias=False)
              (bn2): BatchNorm2d(18, eps=1e-05, momentum=0.01, affine=True, track_running_stats=True)
            )
            (1): BasicBlock(
              (conv1): Conv2d(18, 18, kernel_size=(3, 3), stride=(1, 1), padding=(1, 1), bias=False)
              (bn1): BatchNorm2d(18, eps=1e-05, momentum=0.01, affine=True, track_running_stats=True)
              (relu): ReLU()
              (conv2): Conv2d(18, 18, kernel_size=(3, 3), stride=(1, 1), padding=(1, 1), bias=False)
              (bn2): BatchNorm2d(18, eps=1e-05, momentum=0.01, affine=True, track_running_stats=True)
            )
          )
          (1): Sequential(
            (0): BasicBlock(
              (conv1): Conv2d(36, 36, kernel_size=(3, 3), stride=(1, 1), padding=(1, 1), bias=False)
              (bn1): BatchNorm2d(36, eps=1e-05, momentum=0.01, affine=True, track_running_stats=True)
              (relu): ReLU()
              (conv2): Conv2d(36, 36, kernel_size=(3, 3), stride=(1, 1), padding=(1, 1), bias=False)
              (bn2): BatchNorm2d(36, eps=1e-05, momentum=0.01, affine=True, track_running_stats=True)
            )
            (1): BasicBlock(
              (conv1): Conv2d(36, 36, kernel_size=(3, 3), stride=(1, 1), padding=(1, 1), bias=False)
              (bn1): BatchNorm2d(36, eps=1e-05, momentum=0.01, affine=True, track_running_stats=True)
              (relu): ReLU()
              (conv2): Conv2d(36, 36, kernel_size=(3, 3), stride=(1, 1), padding=(1, 1), bias=False)
              (bn2): BatchNorm2d(36, eps=1e-05, momentum=0.01, affine=True, track_running_stats=True)
            )
          )
          (2): Sequential(
            (0): BasicBlock(
              (conv1): Conv2d(72, 72, kernel_size=(3, 3), stride=(1, 1), padding=(1, 1), bias=False)
              (bn1): BatchNorm2d(72, eps=1e-05, momentum=0.01, affine=True, track_running_stats=True)
              (relu): ReLU()
              (conv2): Conv2d(72, 72, kernel_size=(3, 3), stride=(1, 1), padding=(1, 1), bias=False)
              (bn2): BatchNorm2d(72, eps=1e-05, momentum=0.01, affine=True, track_running_stats=True)
            )
            (1): BasicBlock(
              (conv1): Conv2d(72, 72, kernel_size=(3, 3), stride=(1, 1), padding=(1, 1), bias=False)
              (bn1): BatchNorm2d(72, eps=1e-05, momentum=0.01, affine=True, track_running_stats=True)
              (relu): ReLU()
              (conv2): Conv2d(72, 72, kernel_size=(3, 3), stride=(1, 1), padding=(1, 1), bias=False)
              (bn2): BatchNorm2d(72, eps=1e-05, momentum=0.01, affine=True, track_running_stats=True)
            )
          )
          (3): Sequential(
            (0): BasicBlock(
              (conv1): Conv2d(144, 144, kernel_size=(3, 3), stride=(1, 1), padding=(1, 1), bias=False)
              (bn1): BatchNorm2d(144, eps=1e-05, momentum=0.01, affine=True, track_running_stats=True)
              (relu): ReLU()
              (conv2): Conv2d(144, 144, kernel_size=(3, 3), stride=(1, 1), padding=(1, 1), bias=False)
              (bn2): BatchNorm2d(144, eps=1e-05, momentum=0.01, affine=True, track_running_stats=True)
            )
            (1): BasicBlock(
              (conv1): Conv2d(144, 144, kernel_size=(3, 3), stride=(1, 1), padding=(1, 1), bias=False)
              (bn1): BatchNorm2d(144, eps=1e-05, momentum=0.01, affine=True, track_running_stats=True)
              (relu): ReLU()
              (conv2): Conv2d(144, 144, kernel_size=(3, 3), stride=(1, 1), padding=(1, 1), bias=False)
              (bn2): BatchNorm2d(144, eps=1e-05, momentum=0.01, affine=True, track_running_stats=True)
            )
          )
        )
        (fuse_layers): ModuleList(
          (0): ModuleList(
            (0): None
            (1): Sequential(
              (0): Conv2d(36, 18, kernel_size=(1, 1), stride=(1, 1), bias=False)
              (1): BatchNorm2d(18, eps=1e-05, momentum=0.01, affine=True, track_running_stats=True)
            )
            (2): Sequential(
              (0): Conv2d(72, 18, kernel_size=(1, 1), stride=(1, 1), bias=False)
              (1): BatchNorm2d(18, eps=1e-05, momentum=0.01, affine=True, track_running_stats=True)
            )
            (3): Sequential(
              (0): Conv2d(144, 18, kernel_size=(1, 1), stride=(1, 1), bias=False)
              (1): BatchNorm2d(18, eps=1e-05, momentum=0.01, affine=True, track_running_stats=True)
            )
          )
          (1): ModuleList(
            (0): Sequential(
              (0): Sequential(
                (0): Conv2d(18, 36, kernel_size=(3, 3), stride=(2, 2), padding=(1, 1), bias=False)
                (1): BatchNorm2d(36, eps=1e-05, momentum=0.01, affine=True, track_running_stats=True)
              )
            )
            (1): None
            (2): Sequential(
              (0): Conv2d(72, 36, kernel_size=(1, 1), stride=(1, 1), bias=False)
              (1): BatchNorm2d(36, eps=1e-05, momentum=0.01, affine=True, track_running_stats=True)
            )
            (3): Sequential(
              (0): Conv2d(144, 36, kernel_size=(1, 1), stride=(1, 1), bias=False)
              (1): BatchNorm2d(36, eps=1e-05, momentum=0.01, affine=True, track_running_stats=True)
            )
          )
          (2): ModuleList(
            (0): Sequential(
              (0): Sequential(
                (0): Conv2d(18, 18, kernel_size=(3, 3), stride=(2, 2), padding=(1, 1), bias=False)
                (1): BatchNorm2d(18, eps=1e-05, momentum=0.01, affine=True, track_running_stats=True)
                (2): ReLU()
              )
              (1): Sequential(
                (0): Conv2d(18, 72, kernel_size=(3, 3), stride=(2, 2), padding=(1, 1), bias=False)
                (1): BatchNorm2d(72, eps=1e-05, momentum=0.01, affine=True, track_running_stats=True)
              )
            )
            (1): Sequential(
              (0): Sequential(
                (0): Conv2d(36, 72, kernel_size=(3, 3), stride=(2, 2), padding=(1, 1), bias=False)
                (1): BatchNorm2d(72, eps=1e-05, momentum=0.01, affine=True, track_running_stats=True)
              )
            )
            (2): None
            (3): Sequential(
              (0): Conv2d(144, 72, kernel_size=(1, 1), stride=(1, 1), bias=False)
              (1): BatchNorm2d(72, eps=1e-05, momentum=0.01, affine=True, track_running_stats=True)
            )
          )
          (3): ModuleList(
            (0): Sequential(
              (0): Sequential(
                (0): Conv2d(18, 18, kernel_size=(3, 3), stride=(2, 2), padding=(1, 1), bias=False)
                (1): BatchNorm2d(18, eps=1e-05, momentum=0.01, affine=True, track_running_stats=True)
                (2): ReLU()
              )
              (1): Sequential(
                (0): Conv2d(18, 18, kernel_size=(3, 3), stride=(2, 2), padding=(1, 1), bias=False)
                (1): BatchNorm2d(18, eps=1e-05, momentum=0.01, affine=True, track_running_stats=True)
                (2): ReLU()
              )
              (2): Sequential(
                (0): Conv2d(18, 144, kernel_size=(3, 3), stride=(2, 2), padding=(1, 1), bias=False)
                (1): BatchNorm2d(144, eps=1e-05, momentum=0.01, affine=True, track_running_stats=True)
              )
            )
            (1): Sequential(
              (0): Sequential(
                (0): Conv2d(36, 36, kernel_size=(3, 3), stride=(2, 2), padding=(1, 1), bias=False)
                (1): BatchNorm2d(36, eps=1e-05, momentum=0.01, affine=True, track_running_stats=True)
                (2): ReLU()
              )
              (1): Sequential(
                (0): Conv2d(36, 144, kernel_size=(3, 3), stride=(2, 2), padding=(1, 1), bias=False)
                (1): BatchNorm2d(144, eps=1e-05, momentum=0.01, affine=True, track_running_stats=True)
              )
            )
            (2): Sequential(
              (0): Sequential(
                (0): Conv2d(72, 144, kernel_size=(3, 3), stride=(2, 2), padding=(1, 1), bias=False)
                (1): BatchNorm2d(144, eps=1e-05, momentum=0.01, affine=True, track_running_stats=True)
              )
            )
            (3): None
          )
        )
        (relu): ReLU()
      )
      (1): HighResolutionModule(
        (branches): ModuleList(
          (0): Sequential(
            (0): BasicBlock(
              (conv1): Conv2d(18, 18, kernel_size=(3, 3), stride=(1, 1), padding=(1, 1), bias=False)
              (bn1): BatchNorm2d(18, eps=1e-05, momentum=0.01, affine=True, track_running_stats=True)
              (relu): ReLU()
              (conv2): Conv2d(18, 18, kernel_size=(3, 3), stride=(1, 1), padding=(1, 1), bias=False)
              (bn2): BatchNorm2d(18, eps=1e-05, momentum=0.01, affine=True, track_running_stats=True)
            )
            (1): BasicBlock(
              (conv1): Conv2d(18, 18, kernel_size=(3, 3), stride=(1, 1), padding=(1, 1), bias=False)
              (bn1): BatchNorm2d(18, eps=1e-05, momentum=0.01, affine=True, track_running_stats=True)
              (relu): ReLU()
              (conv2): Conv2d(18, 18, kernel_size=(3, 3), stride=(1, 1), padding=(1, 1), bias=False)
              (bn2): BatchNorm2d(18, eps=1e-05, momentum=0.01, affine=True, track_running_stats=True)
            )
          )
          (1): Sequential(
            (0): BasicBlock(
              (conv1): Conv2d(36, 36, kernel_size=(3, 3), stride=(1, 1), padding=(1, 1), bias=False)
              (bn1): BatchNorm2d(36, eps=1e-05, momentum=0.01, affine=True, track_running_stats=True)
              (relu): ReLU()
              (conv2): Conv2d(36, 36, kernel_size=(3, 3), stride=(1, 1), padding=(1, 1), bias=False)
              (bn2): BatchNorm2d(36, eps=1e-05, momentum=0.01, affine=True, track_running_stats=True)
            )
            (1): BasicBlock(
              (conv1): Conv2d(36, 36, kernel_size=(3, 3), stride=(1, 1), padding=(1, 1), bias=False)
              (bn1): BatchNorm2d(36, eps=1e-05, momentum=0.01, affine=True, track_running_stats=True)
              (relu): ReLU()
              (conv2): Conv2d(36, 36, kernel_size=(3, 3), stride=(1, 1), padding=(1, 1), bias=False)
              (bn2): BatchNorm2d(36, eps=1e-05, momentum=0.01, affine=True, track_running_stats=True)
            )
          )
          (2): Sequential(
            (0): BasicBlock(
              (conv1): Conv2d(72, 72, kernel_size=(3, 3), stride=(1, 1), padding=(1, 1), bias=False)
              (bn1): BatchNorm2d(72, eps=1e-05, momentum=0.01, affine=True, track_running_stats=True)
              (relu): ReLU()
              (conv2): Conv2d(72, 72, kernel_size=(3, 3), stride=(1, 1), padding=(1, 1), bias=False)
              (bn2): BatchNorm2d(72, eps=1e-05, momentum=0.01, affine=True, track_running_stats=True)
            )
            (1): BasicBlock(
              (conv1): Conv2d(72, 72, kernel_size=(3, 3), stride=(1, 1), padding=(1, 1), bias=False)
              (bn1): BatchNorm2d(72, eps=1e-05, momentum=0.01, affine=True, track_running_stats=True)
              (relu): ReLU()
              (conv2): Conv2d(72, 72, kernel_size=(3, 3), stride=(1, 1), padding=(1, 1), bias=False)
              (bn2): BatchNorm2d(72, eps=1e-05, momentum=0.01, affine=True, track_running_stats=True)
            )
          )
          (3): Sequential(
            (0): BasicBlock(
              (conv1): Conv2d(144, 144, kernel_size=(3, 3), stride=(1, 1), padding=(1, 1), bias=False)
              (bn1): BatchNorm2d(144, eps=1e-05, momentum=0.01, affine=True, track_running_stats=True)
              (relu): ReLU()
              (conv2): Conv2d(144, 144, kernel_size=(3, 3), stride=(1, 1), padding=(1, 1), bias=False)
              (bn2): BatchNorm2d(144, eps=1e-05, momentum=0.01, affine=True, track_running_stats=True)
            )
            (1): BasicBlock(
              (conv1): Conv2d(144, 144, kernel_size=(3, 3), stride=(1, 1), padding=(1, 1), bias=False)
              (bn1): BatchNorm2d(144, eps=1e-05, momentum=0.01, affine=True, track_running_stats=True)
              (relu): ReLU()
              (conv2): Conv2d(144, 144, kernel_size=(3, 3), stride=(1, 1), padding=(1, 1), bias=False)
              (bn2): BatchNorm2d(144, eps=1e-05, momentum=0.01, affine=True, track_running_stats=True)
            )
          )
        )
        (fuse_layers): ModuleList(
          (0): ModuleList(
            (0): None
            (1): Sequential(
              (0): Conv2d(36, 18, kernel_size=(1, 1), stride=(1, 1), bias=False)
              (1): BatchNorm2d(18, eps=1e-05, momentum=0.01, affine=True, track_running_stats=True)
            )
            (2): Sequential(
              (0): Conv2d(72, 18, kernel_size=(1, 1), stride=(1, 1), bias=False)
              (1): BatchNorm2d(18, eps=1e-05, momentum=0.01, affine=True, track_running_stats=True)
            )
            (3): Sequential(
              (0): Conv2d(144, 18, kernel_size=(1, 1), stride=(1, 1), bias=False)
              (1): BatchNorm2d(18, eps=1e-05, momentum=0.01, affine=True, track_running_stats=True)
            )
          )
          (1): ModuleList(
            (0): Sequential(
              (0): Sequential(
                (0): Conv2d(18, 36, kernel_size=(3, 3), stride=(2, 2), padding=(1, 1), bias=False)
                (1): BatchNorm2d(36, eps=1e-05, momentum=0.01, affine=True, track_running_stats=True)
              )
            )
            (1): None
            (2): Sequential(
              (0): Conv2d(72, 36, kernel_size=(1, 1), stride=(1, 1), bias=False)
              (1): BatchNorm2d(36, eps=1e-05, momentum=0.01, affine=True, track_running_stats=True)
            )
            (3): Sequential(
              (0): Conv2d(144, 36, kernel_size=(1, 1), stride=(1, 1), bias=False)
              (1): BatchNorm2d(36, eps=1e-05, momentum=0.01, affine=True, track_running_stats=True)
            )
          )
          (2): ModuleList(
            (0): Sequential(
              (0): Sequential(
                (0): Conv2d(18, 18, kernel_size=(3, 3), stride=(2, 2), padding=(1, 1), bias=False)
                (1): BatchNorm2d(18, eps=1e-05, momentum=0.01, affine=True, track_running_stats=True)
                (2): ReLU()
              )
              (1): Sequential(
                (0): Conv2d(18, 72, kernel_size=(3, 3), stride=(2, 2), padding=(1, 1), bias=False)
                (1): BatchNorm2d(72, eps=1e-05, momentum=0.01, affine=True, track_running_stats=True)
              )
            )
            (1): Sequential(
              (0): Sequential(
                (0): Conv2d(36, 72, kernel_size=(3, 3), stride=(2, 2), padding=(1, 1), bias=False)
                (1): BatchNorm2d(72, eps=1e-05, momentum=0.01, affine=True, track_running_stats=True)
              )
            )
            (2): None
            (3): Sequential(
              (0): Conv2d(144, 72, kernel_size=(1, 1), stride=(1, 1), bias=False)
              (1): BatchNorm2d(72, eps=1e-05, momentum=0.01, affine=True, track_running_stats=True)
            )
          )
          (3): ModuleList(
            (0): Sequential(
              (0): Sequential(
                (0): Conv2d(18, 18, kernel_size=(3, 3), stride=(2, 2), padding=(1, 1), bias=False)
                (1): BatchNorm2d(18, eps=1e-05, momentum=0.01, affine=True, track_running_stats=True)
                (2): ReLU()
              )
              (1): Sequential(
                (0): Conv2d(18, 18, kernel_size=(3, 3), stride=(2, 2), padding=(1, 1), bias=False)
                (1): BatchNorm2d(18, eps=1e-05, momentum=0.01, affine=True, track_running_stats=True)
                (2): ReLU()
              )
              (2): Sequential(
                (0): Conv2d(18, 144, kernel_size=(3, 3), stride=(2, 2), padding=(1, 1), bias=False)
                (1): BatchNorm2d(144, eps=1e-05, momentum=0.01, affine=True, track_running_stats=True)
              )
            )
            (1): Sequential(
              (0): Sequential(
                (0): Conv2d(36, 36, kernel_size=(3, 3), stride=(2, 2), padding=(1, 1), bias=False)
                (1): BatchNorm2d(36, eps=1e-05, momentum=0.01, affine=True, track_running_stats=True)
                (2): ReLU()
              )
              (1): Sequential(
                (0): Conv2d(36, 144, kernel_size=(3, 3), stride=(2, 2), padding=(1, 1), bias=False)
                (1): BatchNorm2d(144, eps=1e-05, momentum=0.01, affine=True, track_running_stats=True)
              )
            )
            (2): Sequential(
              (0): Sequential(
                (0): Conv2d(72, 144, kernel_size=(3, 3), stride=(2, 2), padding=(1, 1), bias=False)
                (1): BatchNorm2d(144, eps=1e-05, momentum=0.01, affine=True, track_running_stats=True)
              )
            )
            (3): None
          )
        )
        (relu): ReLU()
      )
    )
  )
  (2): Conv2d(3, 64, kernel_size=(3, 3), stride=(2, 2), padding=(1, 1), bias=False)
  (3): BatchNorm2d(64, eps=1e-05, momentum=0.01, affine=True, track_running_stats=True)
  (4): Conv2d(64, 64, kernel_size=(3, 3), stride=(2, 2), padding=(1, 1), bias=False)
  (5): BatchNorm2d(64, eps=1e-05, momentum=0.01, affine=True, track_running_stats=True)
  (6): ReLU()
  (7): Sequential(
    (0): Bottleneck(
      (conv1): Conv2d(64, 64, kernel_size=(1, 1), stride=(1, 1), bias=False)
      (bn1): BatchNorm2d(64, eps=1e-05, momentum=0.01, affine=True, track_running_stats=True)
      (conv2): Conv2d(64, 64, kernel_size=(3, 3), stride=(1, 1), padding=(1, 1), bias=False)
      (bn2): BatchNorm2d(64, eps=1e-05, momentum=0.01, affine=True, track_running_stats=True)
      (conv3): Conv2d(64, 256, kernel_size=(1, 1), stride=(1, 1), bias=False)
      (bn3): BatchNorm2d(256, eps=1e-05, momentum=0.01, affine=True, track_running_stats=True)
      (relu): ReLU()
      (downsample): Sequential(
        (0): Conv2d(64, 256, kernel_size=(1, 1), stride=(1, 1), bias=False)
        (1): BatchNorm2d(256, eps=1e-05, momentum=0.01, affine=True, track_running_stats=True)
      )
    )
    (1): Bottleneck(
      (conv1): Conv2d(256, 64, kernel_size=(1, 1), stride=(1, 1), bias=False)
      (bn1): BatchNorm2d(64, eps=1e-05, momentum=0.01, affine=True, track_running_stats=True)
      (conv2): Conv2d(64, 64, kernel_size=(3, 3), stride=(1, 1), padding=(1, 1), bias=False)
      (bn2): BatchNorm2d(64, eps=1e-05, momentum=0.01, affine=True, track_running_stats=True)
      (conv3): Conv2d(64, 256, kernel_size=(1, 1), stride=(1, 1), bias=False)
      (bn3): BatchNorm2d(256, eps=1e-05, momentum=0.01, affine=True, track_running_stats=True)
      (relu): ReLU()
    )
  )
  (8): Bottleneck(
    (conv1): Conv2d(64, 64, kernel_size=(1, 1), stride=(1, 1), bias=False)
    (bn1): BatchNorm2d(64, eps=1e-05, momentum=0.01, affine=True, track_running_stats=True)
    (conv2): Conv2d(64, 64, kernel_size=(3, 3), stride=(1, 1), padding=(1, 1), bias=False)
    (bn2): BatchNorm2d(64, eps=1e-05, momentum=0.01, affine=True, track_running_stats=True)
    (conv3): Conv2d(64, 256, kernel_size=(1, 1), stride=(1, 1), bias=False)
    (bn3): BatchNorm2d(256, eps=1e-05, momentum=0.01, affine=True, track_running_stats=True)
    (relu): ReLU()
    (downsample): Sequential(
      (0): Conv2d(64, 256, kernel_size=(1, 1), stride=(1, 1), bias=False)
      (1): BatchNorm2d(256, eps=1e-05, momentum=0.01, affine=True, track_running_stats=True)
    )
  )
  (9): Conv2d(64, 64, kernel_size=(1, 1), stride=(1, 1), bias=False)
  (10): BatchNorm2d(64, eps=1e-05, momentum=0.01, affine=True, track_running_stats=True)
  (11): Conv2d(64, 64, kernel_size=(3, 3), stride=(1, 1), padding=(1, 1), bias=False)
  (12): BatchNorm2d(64, eps=1e-05, momentum=0.01, affine=True, track_running_stats=True)
  (13): Conv2d(64, 256, kernel_size=(1, 1), stride=(1, 1), bias=False)
  (14): BatchNorm2d(256, eps=1e-05, momentum=0.01, affine=True, track_running_stats=True)
  (15): ReLU()
  (16): Sequential(
    (0): Conv2d(64, 256, kernel_size=(1, 1), stride=(1, 1), bias=False)
    (1): BatchNorm2d(256, eps=1e-05, momentum=0.01, affine=True, track_running_stats=True)
  )
  (17): Conv2d(64, 256, kernel_size=(1, 1), stride=(1, 1), bias=False)
  (18): BatchNorm2d(256, eps=1e-05, momentum=0.01, affine=True, track_running_stats=True)
  (19): Bottleneck(
    (conv1): Conv2d(256, 64, kernel_size=(1, 1), stride=(1, 1), bias=False)
    (bn1): BatchNorm2d(64, eps=1e-05, momentum=0.01, affine=True, track_running_stats=True)
    (conv2): Conv2d(64, 64, kernel_size=(3, 3), stride=(1, 1), padding=(1, 1), bias=False)
    (bn2): BatchNorm2d(64, eps=1e-05, momentum=0.01, affine=True, track_running_stats=True)
    (conv3): Conv2d(64, 256, kernel_size=(1, 1), stride=(1, 1), bias=False)
    (bn3): BatchNorm2d(256, eps=1e-05, momentum=0.01, affine=True, track_running_stats=True)
    (relu): ReLU()
  )
  (20): Conv2d(256, 64, kernel_size=(1, 1), stride=(1, 1), bias=False)
  (21): BatchNorm2d(64, eps=1e-05, momentum=0.01, affine=True, track_running_stats=True)
  (22): Conv2d(64, 64, kernel_size=(3, 3), stride=(1, 1), padding=(1, 1), bias=False)
  (23): BatchNorm2d(64, eps=1e-05, momentum=0.01, affine=True, track_running_stats=True)
  (24): Conv2d(64, 256, kernel_size=(1, 1), stride=(1, 1), bias=False)
  (25): BatchNorm2d(256, eps=1e-05, momentum=0.01, affine=True, track_running_stats=True)
  (26): ReLU()
  (27): ModuleList(
    (0): Sequential(
      (0): Conv2d(256, 18, kernel_size=(3, 3), stride=(1, 1), padding=(1, 1), bias=False)
      (1): BatchNorm2d(18, eps=1e-05, momentum=0.01, affine=True, track_running_stats=True)
      (2): ReLU()
    )
    (1): Sequential(
      (0): Sequential(
        (0): Conv2d(256, 36, kernel_size=(3, 3), stride=(2, 2), padding=(1, 1), bias=False)
        (1): BatchNorm2d(36, eps=1e-05, momentum=0.01, affine=True, track_running_stats=True)
        (2): ReLU()
      )
    )
  )
  (28): Sequential(
    (0): Conv2d(256, 18, kernel_size=(3, 3), stride=(1, 1), padding=(1, 1), bias=False)
    (1): BatchNorm2d(18, eps=1e-05, momentum=0.01, affine=True, track_running_stats=True)
    (2): ReLU()
  )
  (29): Conv2d(256, 18, kernel_size=(3, 3), stride=(1, 1), padding=(1, 1), bias=False)
  (30): BatchNorm2d(18, eps=1e-05, momentum=0.01, affine=True, track_running_stats=True)
  (31): ReLU()
  (32): Sequential(
    (0): Sequential(
      (0): Conv2d(256, 36, kernel_size=(3, 3), stride=(2, 2), padding=(1, 1), bias=False)
      (1): BatchNorm2d(36, eps=1e-05, momentum=0.01, affine=True, track_running_stats=True)
      (2): ReLU()
    )
  )
  (33): Sequential(
    (0): Conv2d(256, 36, kernel_size=(3, 3), stride=(2, 2), padding=(1, 1), bias=False)
    (1): BatchNorm2d(36, eps=1e-05, momentum=0.01, affine=True, track_running_stats=True)
    (2): ReLU()
  )
  (34): Conv2d(256, 36, kernel_size=(3, 3), stride=(2, 2), padding=(1, 1), bias=False)
  (35): BatchNorm2d(36, eps=1e-05, momentum=0.01, affine=True, track_running_stats=True)
  (36): ReLU()
  (37): Sequential(
    (0): HighResolutionModule(
      (branches): ModuleList(
        (0): Sequential(
          (0): BasicBlock(
            (conv1): Conv2d(18, 18, kernel_size=(3, 3), stride=(1, 1), padding=(1, 1), bias=False)
            (bn1): BatchNorm2d(18, eps=1e-05, momentum=0.01, affine=True, track_running_stats=True)
            (relu): ReLU()
            (conv2): Conv2d(18, 18, kernel_size=(3, 3), stride=(1, 1), padding=(1, 1), bias=False)
            (bn2): BatchNorm2d(18, eps=1e-05, momentum=0.01, affine=True, track_running_stats=True)
          )
          (1): BasicBlock(
            (conv1): Conv2d(18, 18, kernel_size=(3, 3), stride=(1, 1), padding=(1, 1), bias=False)
            (bn1): BatchNorm2d(18, eps=1e-05, momentum=0.01, affine=True, track_running_stats=True)
            (relu): ReLU()
            (conv2): Conv2d(18, 18, kernel_size=(3, 3), stride=(1, 1), padding=(1, 1), bias=False)
            (bn2): BatchNorm2d(18, eps=1e-05, momentum=0.01, affine=True, track_running_stats=True)
          )
        )
        (1): Sequential(
          (0): BasicBlock(
            (conv1): Conv2d(36, 36, kernel_size=(3, 3), stride=(1, 1), padding=(1, 1), bias=False)
            (bn1): BatchNorm2d(36, eps=1e-05, momentum=0.01, affine=True, track_running_stats=True)
            (relu): ReLU()
            (conv2): Conv2d(36, 36, kernel_size=(3, 3), stride=(1, 1), padding=(1, 1), bias=False)
            (bn2): BatchNorm2d(36, eps=1e-05, momentum=0.01, affine=True, track_running_stats=True)
          )
          (1): BasicBlock(
            (conv1): Conv2d(36, 36, kernel_size=(3, 3), stride=(1, 1), padding=(1, 1), bias=False)
            (bn1): BatchNorm2d(36, eps=1e-05, momentum=0.01, affine=True, track_running_stats=True)
            (relu): ReLU()
            (conv2): Conv2d(36, 36, kernel_size=(3, 3), stride=(1, 1), padding=(1, 1), bias=False)
            (bn2): BatchNorm2d(36, eps=1e-05, momentum=0.01, affine=True, track_running_stats=True)
          )
        )
      )
      (fuse_layers): ModuleList(
        (0): ModuleList(
          (0): None
          (1): Sequential(
            (0): Conv2d(36, 18, kernel_size=(1, 1), stride=(1, 1), bias=False)
            (1): BatchNorm2d(18, eps=1e-05, momentum=0.01, affine=True, track_running_stats=True)
          )
        )
        (1): ModuleList(
          (0): Sequential(
            (0): Sequential(
              (0): Conv2d(18, 36, kernel_size=(3, 3), stride=(2, 2), padding=(1, 1), bias=False)
              (1): BatchNorm2d(36, eps=1e-05, momentum=0.01, affine=True, track_running_stats=True)
            )
          )
          (1): None
        )
      )
      (relu): ReLU()
    )
  )
  (38): HighResolutionModule(
    (branches): ModuleList(
      (0): Sequential(
        (0): BasicBlock(
          (conv1): Conv2d(18, 18, kernel_size=(3, 3), stride=(1, 1), padding=(1, 1), bias=False)
          (bn1): BatchNorm2d(18, eps=1e-05, momentum=0.01, affine=True, track_running_stats=True)
          (relu): ReLU()
          (conv2): Conv2d(18, 18, kernel_size=(3, 3), stride=(1, 1), padding=(1, 1), bias=False)
          (bn2): BatchNorm2d(18, eps=1e-05, momentum=0.01, affine=True, track_running_stats=True)
        )
        (1): BasicBlock(
          (conv1): Conv2d(18, 18, kernel_size=(3, 3), stride=(1, 1), padding=(1, 1), bias=False)
          (bn1): BatchNorm2d(18, eps=1e-05, momentum=0.01, affine=True, track_running_stats=True)
          (relu): ReLU()
          (conv2): Conv2d(18, 18, kernel_size=(3, 3), stride=(1, 1), padding=(1, 1), bias=False)
          (bn2): BatchNorm2d(18, eps=1e-05, momentum=0.01, affine=True, track_running_stats=True)
        )
      )
      (1): Sequential(
        (0): BasicBlock(
          (conv1): Conv2d(36, 36, kernel_size=(3, 3), stride=(1, 1), padding=(1, 1), bias=False)
          (bn1): BatchNorm2d(36, eps=1e-05, momentum=0.01, affine=True, track_running_stats=True)
          (relu): ReLU()
          (conv2): Conv2d(36, 36, kernel_size=(3, 3), stride=(1, 1), padding=(1, 1), bias=False)
          (bn2): BatchNorm2d(36, eps=1e-05, momentum=0.01, affine=True, track_running_stats=True)
        )
        (1): BasicBlock(
          (conv1): Conv2d(36, 36, kernel_size=(3, 3), stride=(1, 1), padding=(1, 1), bias=False)
          (bn1): BatchNorm2d(36, eps=1e-05, momentum=0.01, affine=True, track_running_stats=True)
          (relu): ReLU()
          (conv2): Conv2d(36, 36, kernel_size=(3, 3), stride=(1, 1), padding=(1, 1), bias=False)
          (bn2): BatchNorm2d(36, eps=1e-05, momentum=0.01, affine=True, track_running_stats=True)
        )
      )
    )
    (fuse_layers): ModuleList(
      (0): ModuleList(
        (0): None
        (1): Sequential(
          (0): Conv2d(36, 18, kernel_size=(1, 1), stride=(1, 1), bias=False)
          (1): BatchNorm2d(18, eps=1e-05, momentum=0.01, affine=True, track_running_stats=True)
        )
      )
      (1): ModuleList(
        (0): Sequential(
          (0): Sequential(
            (0): Conv2d(18, 36, kernel_size=(3, 3), stride=(2, 2), padding=(1, 1), bias=False)
            (1): BatchNorm2d(36, eps=1e-05, momentum=0.01, affine=True, track_running_stats=True)
          )
        )
        (1): None
      )
    )
    (relu): ReLU()
  )
  (39): ModuleList(
    (0): Sequential(
      (0): BasicBlock(
        (conv1): Conv2d(18, 18, kernel_size=(3, 3), stride=(1, 1), padding=(1, 1), bias=False)
        (bn1): BatchNorm2d(18, eps=1e-05, momentum=0.01, affine=True, track_running_stats=True)
        (relu): ReLU()
        (conv2): Conv2d(18, 18, kernel_size=(3, 3), stride=(1, 1), padding=(1, 1), bias=False)
        (bn2): BatchNorm2d(18, eps=1e-05, momentum=0.01, affine=True, track_running_stats=True)
      )
      (1): BasicBlock(
        (conv1): Conv2d(18, 18, kernel_size=(3, 3), stride=(1, 1), padding=(1, 1), bias=False)
        (bn1): BatchNorm2d(18, eps=1e-05, momentum=0.01, affine=True, track_running_stats=True)
        (relu): ReLU()
        (conv2): Conv2d(18, 18, kernel_size=(3, 3), stride=(1, 1), padding=(1, 1), bias=False)
        (bn2): BatchNorm2d(18, eps=1e-05, momentum=0.01, affine=True, track_running_stats=True)
      )
    )
    (1): Sequential(
      (0): BasicBlock(
        (conv1): Conv2d(36, 36, kernel_size=(3, 3), stride=(1, 1), padding=(1, 1), bias=False)
        (bn1): BatchNorm2d(36, eps=1e-05, momentum=0.01, affine=True, track_running_stats=True)
        (relu): ReLU()
        (conv2): Conv2d(36, 36, kernel_size=(3, 3), stride=(1, 1), padding=(1, 1), bias=False)
        (bn2): BatchNorm2d(36, eps=1e-05, momentum=0.01, affine=True, track_running_stats=True)
      )
      (1): BasicBlock(
        (conv1): Conv2d(36, 36, kernel_size=(3, 3), stride=(1, 1), padding=(1, 1), bias=False)
        (bn1): BatchNorm2d(36, eps=1e-05, momentum=0.01, affine=True, track_running_stats=True)
        (relu): ReLU()
        (conv2): Conv2d(36, 36, kernel_size=(3, 3), stride=(1, 1), padding=(1, 1), bias=False)
        (bn2): BatchNorm2d(36, eps=1e-05, momentum=0.01, affine=True, track_running_stats=True)
      )
    )
  )
  (40): Sequential(
    (0): BasicBlock(
      (conv1): Conv2d(18, 18, kernel_size=(3, 3), stride=(1, 1), padding=(1, 1), bias=False)
      (bn1): BatchNorm2d(18, eps=1e-05, momentum=0.01, affine=True, track_running_stats=True)
      (relu): ReLU()
      (conv2): Conv2d(18, 18, kernel_size=(3, 3), stride=(1, 1), padding=(1, 1), bias=False)
      (bn2): BatchNorm2d(18, eps=1e-05, momentum=0.01, affine=True, track_running_stats=True)
    )
    (1): BasicBlock(
      (conv1): Conv2d(18, 18, kernel_size=(3, 3), stride=(1, 1), padding=(1, 1), bias=False)
      (bn1): BatchNorm2d(18, eps=1e-05, momentum=0.01, affine=True, track_running_stats=True)
      (relu): ReLU()
      (conv2): Conv2d(18, 18, kernel_size=(3, 3), stride=(1, 1), padding=(1, 1), bias=False)
      (bn2): BatchNorm2d(18, eps=1e-05, momentum=0.01, affine=True, track_running_stats=True)
    )
  )
  (41): BasicBlock(
    (conv1): Conv2d(18, 18, kernel_size=(3, 3), stride=(1, 1), padding=(1, 1), bias=False)
    (bn1): BatchNorm2d(18, eps=1e-05, momentum=0.01, affine=True, track_running_stats=True)
    (relu): ReLU()
    (conv2): Conv2d(18, 18, kernel_size=(3, 3), stride=(1, 1), padding=(1, 1), bias=False)
    (bn2): BatchNorm2d(18, eps=1e-05, momentum=0.01, affine=True, track_running_stats=True)
  )
  (42): Conv2d(18, 18, kernel_size=(3, 3), stride=(1, 1), padding=(1, 1), bias=False)
  (43): BatchNorm2d(18, eps=1e-05, momentum=0.01, affine=True, track_running_stats=True)
  (44): ReLU()
  (45): Conv2d(18, 18, kernel_size=(3, 3), stride=(1, 1), padding=(1, 1), bias=False)
  (46): BatchNorm2d(18, eps=1e-05, momentum=0.01, affine=True, track_running_stats=True)
  (47): BasicBlock(
    (conv1): Conv2d(18, 18, kernel_size=(3, 3), stride=(1, 1), padding=(1, 1), bias=False)
    (bn1): BatchNorm2d(18, eps=1e-05, momentum=0.01, affine=True, track_running_stats=True)
    (relu): ReLU()
    (conv2): Conv2d(18, 18, kernel_size=(3, 3), stride=(1, 1), padding=(1, 1), bias=False)
    (bn2): BatchNorm2d(18, eps=1e-05, momentum=0.01, affine=True, track_running_stats=True)
  )
  (48): Conv2d(18, 18, kernel_size=(3, 3), stride=(1, 1), padding=(1, 1), bias=False)
  (49): BatchNorm2d(18, eps=1e-05, momentum=0.01, affine=True, track_running_stats=True)
  (50): ReLU()
  (51): Conv2d(18, 18, kernel_size=(3, 3), stride=(1, 1), padding=(1, 1), bias=False)
  (52): BatchNorm2d(18, eps=1e-05, momentum=0.01, affine=True, track_running_stats=True)
  (53): Sequential(
    (0): BasicBlock(
      (conv1): Conv2d(36, 36, kernel_size=(3, 3), stride=(1, 1), padding=(1, 1), bias=False)
      (bn1): BatchNorm2d(36, eps=1e-05, momentum=0.01, affine=True, track_running_stats=True)
      (relu): ReLU()
      (conv2): Conv2d(36, 36, kernel_size=(3, 3), stride=(1, 1), padding=(1, 1), bias=False)
      (bn2): BatchNorm2d(36, eps=1e-05, momentum=0.01, affine=True, track_running_stats=True)
    )
    (1): BasicBlock(
      (conv1): Conv2d(36, 36, kernel_size=(3, 3), stride=(1, 1), padding=(1, 1), bias=False)
      (bn1): BatchNorm2d(36, eps=1e-05, momentum=0.01, affine=True, track_running_stats=True)
      (relu): ReLU()
      (conv2): Conv2d(36, 36, kernel_size=(3, 3), stride=(1, 1), padding=(1, 1), bias=False)
      (bn2): BatchNorm2d(36, eps=1e-05, momentum=0.01, affine=True, track_running_stats=True)
    )
  )
  (54): BasicBlock(
    (conv1): Conv2d(36, 36, kernel_size=(3, 3), stride=(1, 1), padding=(1, 1), bias=False)
    (bn1): BatchNorm2d(36, eps=1e-05, momentum=0.01, affine=True, track_running_stats=True)
    (relu): ReLU()
    (conv2): Conv2d(36, 36, kernel_size=(3, 3), stride=(1, 1), padding=(1, 1), bias=False)
    (bn2): BatchNorm2d(36, eps=1e-05, momentum=0.01, affine=True, track_running_stats=True)
  )
  (55): Conv2d(36, 36, kernel_size=(3, 3), stride=(1, 1), padding=(1, 1), bias=False)
  (56): BatchNorm2d(36, eps=1e-05, momentum=0.01, affine=True, track_running_stats=True)
  (57): ReLU()
  (58): Conv2d(36, 36, kernel_size=(3, 3), stride=(1, 1), padding=(1, 1), bias=False)
  (59): BatchNorm2d(36, eps=1e-05, momentum=0.01, affine=True, track_running_stats=True)
  (60): BasicBlock(
    (conv1): Conv2d(36, 36, kernel_size=(3, 3), stride=(1, 1), padding=(1, 1), bias=False)
    (bn1): BatchNorm2d(36, eps=1e-05, momentum=0.01, affine=True, track_running_stats=True)
    (relu): ReLU()
    (conv2): Conv2d(36, 36, kernel_size=(3, 3), stride=(1, 1), padding=(1, 1), bias=False)
    (bn2): BatchNorm2d(36, eps=1e-05, momentum=0.01, affine=True, track_running_stats=True)
  )
  (61): Conv2d(36, 36, kernel_size=(3, 3), stride=(1, 1), padding=(1, 1), bias=False)
  (62): BatchNorm2d(36, eps=1e-05, momentum=0.01, affine=True, track_running_stats=True)
  (63): ReLU()
  (64): Conv2d(36, 36, kernel_size=(3, 3), stride=(1, 1), padding=(1, 1), bias=False)
  (65): BatchNorm2d(36, eps=1e-05, momentum=0.01, affine=True, track_running_stats=True)
  (66): ModuleList(
    (0): ModuleList(
      (0): None
      (1): Sequential(
        (0): Conv2d(36, 18, kernel_size=(1, 1), stride=(1, 1), bias=False)
        (1): BatchNorm2d(18, eps=1e-05, momentum=0.01, affine=True, track_running_stats=True)
      )
    )
    (1): ModuleList(
      (0): Sequential(
        (0): Sequential(
          (0): Conv2d(18, 36, kernel_size=(3, 3), stride=(2, 2), padding=(1, 1), bias=False)
          (1): BatchNorm2d(36, eps=1e-05, momentum=0.01, affine=True, track_running_stats=True)
        )
      )
      (1): None
    )
  )
  (67): ModuleList(
    (0): None
    (1): Sequential(
      (0): Conv2d(36, 18, kernel_size=(1, 1), stride=(1, 1), bias=False)
      (1): BatchNorm2d(18, eps=1e-05, momentum=0.01, affine=True, track_running_stats=True)
    )
  )
  (68): Sequential(
    (0): Conv2d(36, 18, kernel_size=(1, 1), stride=(1, 1), bias=False)
    (1): BatchNorm2d(18, eps=1e-05, momentum=0.01, affine=True, track_running_stats=True)
  )
  (69): Conv2d(36, 18, kernel_size=(1, 1), stride=(1, 1), bias=False)
  (70): BatchNorm2d(18, eps=1e-05, momentum=0.01, affine=True, track_running_stats=True)
  (71): ModuleList(
    (0): Sequential(
      (0): Sequential(
        (0): Conv2d(18, 36, kernel_size=(3, 3), stride=(2, 2), padding=(1, 1), bias=False)
        (1): BatchNorm2d(36, eps=1e-05, momentum=0.01, affine=True, track_running_stats=True)
      )
    )
    (1): None
  )
  (72): Sequential(
    (0): Sequential(
      (0): Conv2d(18, 36, kernel_size=(3, 3), stride=(2, 2), padding=(1, 1), bias=False)
      (1): BatchNorm2d(36, eps=1e-05, momentum=0.01, affine=True, track_running_stats=True)
    )
  )
  (73): Sequential(
    (0): Conv2d(18, 36, kernel_size=(3, 3), stride=(2, 2), padding=(1, 1), bias=False)
    (1): BatchNorm2d(36, eps=1e-05, momentum=0.01, affine=True, track_running_stats=True)
  )
  (74): Conv2d(18, 36, kernel_size=(3, 3), stride=(2, 2), padding=(1, 1), bias=False)
  (75): BatchNorm2d(36, eps=1e-05, momentum=0.01, affine=True, track_running_stats=True)
  (76): ReLU()
  (77): ModuleList(
    (0): None
    (1): None
    (2): Sequential(
      (0): Sequential(
        (0): Conv2d(36, 72, kernel_size=(3, 3), stride=(2, 2), padding=(1, 1), bias=False)
        (1): BatchNorm2d(72, eps=1e-05, momentum=0.01, affine=True, track_running_stats=True)
        (2): ReLU()
      )
    )
  )
  (78): Sequential(
    (0): Sequential(
      (0): Conv2d(36, 72, kernel_size=(3, 3), stride=(2, 2), padding=(1, 1), bias=False)
      (1): BatchNorm2d(72, eps=1e-05, momentum=0.01, affine=True, track_running_stats=True)
      (2): ReLU()
    )
  )
  (79): Sequential(
    (0): Conv2d(36, 72, kernel_size=(3, 3), stride=(2, 2), padding=(1, 1), bias=False)
    (1): BatchNorm2d(72, eps=1e-05, momentum=0.01, affine=True, track_running_stats=True)
    (2): ReLU()
  )
  (80): Conv2d(36, 72, kernel_size=(3, 3), stride=(2, 2), padding=(1, 1), bias=False)
  (81): BatchNorm2d(72, eps=1e-05, momentum=0.01, affine=True, track_running_stats=True)
  (82): ReLU()
  (83): Sequential(
    (0): HighResolutionModule(
      (branches): ModuleList(
        (0): Sequential(
          (0): BasicBlock(
            (conv1): Conv2d(18, 18, kernel_size=(3, 3), stride=(1, 1), padding=(1, 1), bias=False)
            (bn1): BatchNorm2d(18, eps=1e-05, momentum=0.01, affine=True, track_running_stats=True)
            (relu): ReLU()
            (conv2): Conv2d(18, 18, kernel_size=(3, 3), stride=(1, 1), padding=(1, 1), bias=False)
            (bn2): BatchNorm2d(18, eps=1e-05, momentum=0.01, affine=True, track_running_stats=True)
          )
          (1): BasicBlock(
            (conv1): Conv2d(18, 18, kernel_size=(3, 3), stride=(1, 1), padding=(1, 1), bias=False)
            (bn1): BatchNorm2d(18, eps=1e-05, momentum=0.01, affine=True, track_running_stats=True)
            (relu): ReLU()
            (conv2): Conv2d(18, 18, kernel_size=(3, 3), stride=(1, 1), padding=(1, 1), bias=False)
            (bn2): BatchNorm2d(18, eps=1e-05, momentum=0.01, affine=True, track_running_stats=True)
          )
        )
        (1): Sequential(
          (0): BasicBlock(
            (conv1): Conv2d(36, 36, kernel_size=(3, 3), stride=(1, 1), padding=(1, 1), bias=False)
            (bn1): BatchNorm2d(36, eps=1e-05, momentum=0.01, affine=True, track_running_stats=True)
            (relu): ReLU()
            (conv2): Conv2d(36, 36, kernel_size=(3, 3), stride=(1, 1), padding=(1, 1), bias=False)
            (bn2): BatchNorm2d(36, eps=1e-05, momentum=0.01, affine=True, track_running_stats=True)
          )
          (1): BasicBlock(
            (conv1): Conv2d(36, 36, kernel_size=(3, 3), stride=(1, 1), padding=(1, 1), bias=False)
            (bn1): BatchNorm2d(36, eps=1e-05, momentum=0.01, affine=True, track_running_stats=True)
            (relu): ReLU()
            (conv2): Conv2d(36, 36, kernel_size=(3, 3), stride=(1, 1), padding=(1, 1), bias=False)
            (bn2): BatchNorm2d(36, eps=1e-05, momentum=0.01, affine=True, track_running_stats=True)
          )
        )
        (2): Sequential(
          (0): BasicBlock(
            (conv1): Conv2d(72, 72, kernel_size=(3, 3), stride=(1, 1), padding=(1, 1), bias=False)
            (bn1): BatchNorm2d(72, eps=1e-05, momentum=0.01, affine=True, track_running_stats=True)
            (relu): ReLU()
            (conv2): Conv2d(72, 72, kernel_size=(3, 3), stride=(1, 1), padding=(1, 1), bias=False)
            (bn2): BatchNorm2d(72, eps=1e-05, momentum=0.01, affine=True, track_running_stats=True)
          )
          (1): BasicBlock(
            (conv1): Conv2d(72, 72, kernel_size=(3, 3), stride=(1, 1), padding=(1, 1), bias=False)
            (bn1): BatchNorm2d(72, eps=1e-05, momentum=0.01, affine=True, track_running_stats=True)
            (relu): ReLU()
            (conv2): Conv2d(72, 72, kernel_size=(3, 3), stride=(1, 1), padding=(1, 1), bias=False)
            (bn2): BatchNorm2d(72, eps=1e-05, momentum=0.01, affine=True, track_running_stats=True)
          )
        )
      )
      (fuse_layers): ModuleList(
        (0): ModuleList(
          (0): None
          (1): Sequential(
            (0): Conv2d(36, 18, kernel_size=(1, 1), stride=(1, 1), bias=False)
            (1): BatchNorm2d(18, eps=1e-05, momentum=0.01, affine=True, track_running_stats=True)
          )
          (2): Sequential(
            (0): Conv2d(72, 18, kernel_size=(1, 1), stride=(1, 1), bias=False)
            (1): BatchNorm2d(18, eps=1e-05, momentum=0.01, affine=True, track_running_stats=True)
          )
        )
        (1): ModuleList(
          (0): Sequential(
            (0): Sequential(
              (0): Conv2d(18, 36, kernel_size=(3, 3), stride=(2, 2), padding=(1, 1), bias=False)
              (1): BatchNorm2d(36, eps=1e-05, momentum=0.01, affine=True, track_running_stats=True)
            )
          )
          (1): None
          (2): Sequential(
            (0): Conv2d(72, 36, kernel_size=(1, 1), stride=(1, 1), bias=False)
            (1): BatchNorm2d(36, eps=1e-05, momentum=0.01, affine=True, track_running_stats=True)
          )
        )
        (2): ModuleList(
          (0): Sequential(
            (0): Sequential(
              (0): Conv2d(18, 18, kernel_size=(3, 3), stride=(2, 2), padding=(1, 1), bias=False)
              (1): BatchNorm2d(18, eps=1e-05, momentum=0.01, affine=True, track_running_stats=True)
              (2): ReLU()
            )
            (1): Sequential(
              (0): Conv2d(18, 72, kernel_size=(3, 3), stride=(2, 2), padding=(1, 1), bias=False)
              (1): BatchNorm2d(72, eps=1e-05, momentum=0.01, affine=True, track_running_stats=True)
            )
          )
          (1): Sequential(
            (0): Sequential(
              (0): Conv2d(36, 72, kernel_size=(3, 3), stride=(2, 2), padding=(1, 1), bias=False)
              (1): BatchNorm2d(72, eps=1e-05, momentum=0.01, affine=True, track_running_stats=True)
            )
          )
          (2): None
        )
      )
      (relu): ReLU()
    )
    (1): HighResolutionModule(
      (branches): ModuleList(
        (0): Sequential(
          (0): BasicBlock(
            (conv1): Conv2d(18, 18, kernel_size=(3, 3), stride=(1, 1), padding=(1, 1), bias=False)
            (bn1): BatchNorm2d(18, eps=1e-05, momentum=0.01, affine=True, track_running_stats=True)
            (relu): ReLU()
            (conv2): Conv2d(18, 18, kernel_size=(3, 3), stride=(1, 1), padding=(1, 1), bias=False)
            (bn2): BatchNorm2d(18, eps=1e-05, momentum=0.01, affine=True, track_running_stats=True)
          )
          (1): BasicBlock(
            (conv1): Conv2d(18, 18, kernel_size=(3, 3), stride=(1, 1), padding=(1, 1), bias=False)
            (bn1): BatchNorm2d(18, eps=1e-05, momentum=0.01, affine=True, track_running_stats=True)
            (relu): ReLU()
            (conv2): Conv2d(18, 18, kernel_size=(3, 3), stride=(1, 1), padding=(1, 1), bias=False)
            (bn2): BatchNorm2d(18, eps=1e-05, momentum=0.01, affine=True, track_running_stats=True)
          )
        )
        (1): Sequential(
          (0): BasicBlock(
            (conv1): Conv2d(36, 36, kernel_size=(3, 3), stride=(1, 1), padding=(1, 1), bias=False)
            (bn1): BatchNorm2d(36, eps=1e-05, momentum=0.01, affine=True, track_running_stats=True)
            (relu): ReLU()
            (conv2): Conv2d(36, 36, kernel_size=(3, 3), stride=(1, 1), padding=(1, 1), bias=False)
            (bn2): BatchNorm2d(36, eps=1e-05, momentum=0.01, affine=True, track_running_stats=True)
          )
          (1): BasicBlock(
            (conv1): Conv2d(36, 36, kernel_size=(3, 3), stride=(1, 1), padding=(1, 1), bias=False)
            (bn1): BatchNorm2d(36, eps=1e-05, momentum=0.01, affine=True, track_running_stats=True)
            (relu): ReLU()
            (conv2): Conv2d(36, 36, kernel_size=(3, 3), stride=(1, 1), padding=(1, 1), bias=False)
            (bn2): BatchNorm2d(36, eps=1e-05, momentum=0.01, affine=True, track_running_stats=True)
          )
        )
        (2): Sequential(
          (0): BasicBlock(
            (conv1): Conv2d(72, 72, kernel_size=(3, 3), stride=(1, 1), padding=(1, 1), bias=False)
            (bn1): BatchNorm2d(72, eps=1e-05, momentum=0.01, affine=True, track_running_stats=True)
            (relu): ReLU()
            (conv2): Conv2d(72, 72, kernel_size=(3, 3), stride=(1, 1), padding=(1, 1), bias=False)
            (bn2): BatchNorm2d(72, eps=1e-05, momentum=0.01, affine=True, track_running_stats=True)
          )
          (1): BasicBlock(
            (conv1): Conv2d(72, 72, kernel_size=(3, 3), stride=(1, 1), padding=(1, 1), bias=False)
            (bn1): BatchNorm2d(72, eps=1e-05, momentum=0.01, affine=True, track_running_stats=True)
            (relu): ReLU()
            (conv2): Conv2d(72, 72, kernel_size=(3, 3), stride=(1, 1), padding=(1, 1), bias=False)
            (bn2): BatchNorm2d(72, eps=1e-05, momentum=0.01, affine=True, track_running_stats=True)
          )
        )
      )
      (fuse_layers): ModuleList(
        (0): ModuleList(
          (0): None
          (1): Sequential(
            (0): Conv2d(36, 18, kernel_size=(1, 1), stride=(1, 1), bias=False)
            (1): BatchNorm2d(18, eps=1e-05, momentum=0.01, affine=True, track_running_stats=True)
          )
          (2): Sequential(
            (0): Conv2d(72, 18, kernel_size=(1, 1), stride=(1, 1), bias=False)
            (1): BatchNorm2d(18, eps=1e-05, momentum=0.01, affine=True, track_running_stats=True)
          )
        )
        (1): ModuleList(
          (0): Sequential(
            (0): Sequential(
              (0): Conv2d(18, 36, kernel_size=(3, 3), stride=(2, 2), padding=(1, 1), bias=False)
              (1): BatchNorm2d(36, eps=1e-05, momentum=0.01, affine=True, track_running_stats=True)
            )
          )
          (1): None
          (2): Sequential(
            (0): Conv2d(72, 36, kernel_size=(1, 1), stride=(1, 1), bias=False)
            (1): BatchNorm2d(36, eps=1e-05, momentum=0.01, affine=True, track_running_stats=True)
          )
        )
        (2): ModuleList(
          (0): Sequential(
            (0): Sequential(
              (0): Conv2d(18, 18, kernel_size=(3, 3), stride=(2, 2), padding=(1, 1), bias=False)
              (1): BatchNorm2d(18, eps=1e-05, momentum=0.01, affine=True, track_running_stats=True)
              (2): ReLU()
            )
            (1): Sequential(
              (0): Conv2d(18, 72, kernel_size=(3, 3), stride=(2, 2), padding=(1, 1), bias=False)
              (1): BatchNorm2d(72, eps=1e-05, momentum=0.01, affine=True, track_running_stats=True)
            )
          )
          (1): Sequential(
            (0): Sequential(
              (0): Conv2d(36, 72, kernel_size=(3, 3), stride=(2, 2), padding=(1, 1), bias=False)
              (1): BatchNorm2d(72, eps=1e-05, momentum=0.01, affine=True, track_running_stats=True)
            )
          )
          (2): None
        )
      )
      (relu): ReLU()
    )
    (2): HighResolutionModule(
      (branches): ModuleList(
        (0): Sequential(
          (0): BasicBlock(
            (conv1): Conv2d(18, 18, kernel_size=(3, 3), stride=(1, 1), padding=(1, 1), bias=False)
            (bn1): BatchNorm2d(18, eps=1e-05, momentum=0.01, affine=True, track_running_stats=True)
            (relu): ReLU()
            (conv2): Conv2d(18, 18, kernel_size=(3, 3), stride=(1, 1), padding=(1, 1), bias=False)
            (bn2): BatchNorm2d(18, eps=1e-05, momentum=0.01, affine=True, track_running_stats=True)
          )
          (1): BasicBlock(
            (conv1): Conv2d(18, 18, kernel_size=(3, 3), stride=(1, 1), padding=(1, 1), bias=False)
            (bn1): BatchNorm2d(18, eps=1e-05, momentum=0.01, affine=True, track_running_stats=True)
            (relu): ReLU()
            (conv2): Conv2d(18, 18, kernel_size=(3, 3), stride=(1, 1), padding=(1, 1), bias=False)
            (bn2): BatchNorm2d(18, eps=1e-05, momentum=0.01, affine=True, track_running_stats=True)
          )
        )
        (1): Sequential(
          (0): BasicBlock(
            (conv1): Conv2d(36, 36, kernel_size=(3, 3), stride=(1, 1), padding=(1, 1), bias=False)
            (bn1): BatchNorm2d(36, eps=1e-05, momentum=0.01, affine=True, track_running_stats=True)
            (relu): ReLU()
            (conv2): Conv2d(36, 36, kernel_size=(3, 3), stride=(1, 1), padding=(1, 1), bias=False)
            (bn2): BatchNorm2d(36, eps=1e-05, momentum=0.01, affine=True, track_running_stats=True)
          )
          (1): BasicBlock(
            (conv1): Conv2d(36, 36, kernel_size=(3, 3), stride=(1, 1), padding=(1, 1), bias=False)
            (bn1): BatchNorm2d(36, eps=1e-05, momentum=0.01, affine=True, track_running_stats=True)
            (relu): ReLU()
            (conv2): Conv2d(36, 36, kernel_size=(3, 3), stride=(1, 1), padding=(1, 1), bias=False)
            (bn2): BatchNorm2d(36, eps=1e-05, momentum=0.01, affine=True, track_running_stats=True)
          )
        )
        (2): Sequential(
          (0): BasicBlock(
            (conv1): Conv2d(72, 72, kernel_size=(3, 3), stride=(1, 1), padding=(1, 1), bias=False)
            (bn1): BatchNorm2d(72, eps=1e-05, momentum=0.01, affine=True, track_running_stats=True)
            (relu): ReLU()
            (conv2): Conv2d(72, 72, kernel_size=(3, 3), stride=(1, 1), padding=(1, 1), bias=False)
            (bn2): BatchNorm2d(72, eps=1e-05, momentum=0.01, affine=True, track_running_stats=True)
          )
          (1): BasicBlock(
            (conv1): Conv2d(72, 72, kernel_size=(3, 3), stride=(1, 1), padding=(1, 1), bias=False)
            (bn1): BatchNorm2d(72, eps=1e-05, momentum=0.01, affine=True, track_running_stats=True)
            (relu): ReLU()
            (conv2): Conv2d(72, 72, kernel_size=(3, 3), stride=(1, 1), padding=(1, 1), bias=False)
            (bn2): BatchNorm2d(72, eps=1e-05, momentum=0.01, affine=True, track_running_stats=True)
          )
        )
      )
      (fuse_layers): ModuleList(
        (0): ModuleList(
          (0): None
          (1): Sequential(
            (0): Conv2d(36, 18, kernel_size=(1, 1), stride=(1, 1), bias=False)
            (1): BatchNorm2d(18, eps=1e-05, momentum=0.01, affine=True, track_running_stats=True)
          )
          (2): Sequential(
            (0): Conv2d(72, 18, kernel_size=(1, 1), stride=(1, 1), bias=False)
            (1): BatchNorm2d(18, eps=1e-05, momentum=0.01, affine=True, track_running_stats=True)
          )
        )
        (1): ModuleList(
          (0): Sequential(
            (0): Sequential(
              (0): Conv2d(18, 36, kernel_size=(3, 3), stride=(2, 2), padding=(1, 1), bias=False)
              (1): BatchNorm2d(36, eps=1e-05, momentum=0.01, affine=True, track_running_stats=True)
            )
          )
          (1): None
          (2): Sequential(
            (0): Conv2d(72, 36, kernel_size=(1, 1), stride=(1, 1), bias=False)
            (1): BatchNorm2d(36, eps=1e-05, momentum=0.01, affine=True, track_running_stats=True)
          )
        )
        (2): ModuleList(
          (0): Sequential(
            (0): Sequential(
              (0): Conv2d(18, 18, kernel_size=(3, 3), stride=(2, 2), padding=(1, 1), bias=False)
              (1): BatchNorm2d(18, eps=1e-05, momentum=0.01, affine=True, track_running_stats=True)
              (2): ReLU()
            )
            (1): Sequential(
              (0): Conv2d(18, 72, kernel_size=(3, 3), stride=(2, 2), padding=(1, 1), bias=False)
              (1): BatchNorm2d(72, eps=1e-05, momentum=0.01, affine=True, track_running_stats=True)
            )
          )
          (1): Sequential(
            (0): Sequential(
              (0): Conv2d(36, 72, kernel_size=(3, 3), stride=(2, 2), padding=(1, 1), bias=False)
              (1): BatchNorm2d(72, eps=1e-05, momentum=0.01, affine=True, track_running_stats=True)
            )
          )
          (2): None
        )
      )
      (relu): ReLU()
    )
  )
  (84): HighResolutionModule(
    (branches): ModuleList(
      (0): Sequential(
        (0): BasicBlock(
          (conv1): Conv2d(18, 18, kernel_size=(3, 3), stride=(1, 1), padding=(1, 1), bias=False)
          (bn1): BatchNorm2d(18, eps=1e-05, momentum=0.01, affine=True, track_running_stats=True)
          (relu): ReLU()
          (conv2): Conv2d(18, 18, kernel_size=(3, 3), stride=(1, 1), padding=(1, 1), bias=False)
          (bn2): BatchNorm2d(18, eps=1e-05, momentum=0.01, affine=True, track_running_stats=True)
        )
        (1): BasicBlock(
          (conv1): Conv2d(18, 18, kernel_size=(3, 3), stride=(1, 1), padding=(1, 1), bias=False)
          (bn1): BatchNorm2d(18, eps=1e-05, momentum=0.01, affine=True, track_running_stats=True)
          (relu): ReLU()
          (conv2): Conv2d(18, 18, kernel_size=(3, 3), stride=(1, 1), padding=(1, 1), bias=False)
          (bn2): BatchNorm2d(18, eps=1e-05, momentum=0.01, affine=True, track_running_stats=True)
        )
      )
      (1): Sequential(
        (0): BasicBlock(
          (conv1): Conv2d(36, 36, kernel_size=(3, 3), stride=(1, 1), padding=(1, 1), bias=False)
          (bn1): BatchNorm2d(36, eps=1e-05, momentum=0.01, affine=True, track_running_stats=True)
          (relu): ReLU()
          (conv2): Conv2d(36, 36, kernel_size=(3, 3), stride=(1, 1), padding=(1, 1), bias=False)
          (bn2): BatchNorm2d(36, eps=1e-05, momentum=0.01, affine=True, track_running_stats=True)
        )
        (1): BasicBlock(
          (conv1): Conv2d(36, 36, kernel_size=(3, 3), stride=(1, 1), padding=(1, 1), bias=False)
          (bn1): BatchNorm2d(36, eps=1e-05, momentum=0.01, affine=True, track_running_stats=True)
          (relu): ReLU()
          (conv2): Conv2d(36, 36, kernel_size=(3, 3), stride=(1, 1), padding=(1, 1), bias=False)
          (bn2): BatchNorm2d(36, eps=1e-05, momentum=0.01, affine=True, track_running_stats=True)
        )
      )
      (2): Sequential(
        (0): BasicBlock(
          (conv1): Conv2d(72, 72, kernel_size=(3, 3), stride=(1, 1), padding=(1, 1), bias=False)
          (bn1): BatchNorm2d(72, eps=1e-05, momentum=0.01, affine=True, track_running_stats=True)
          (relu): ReLU()
          (conv2): Conv2d(72, 72, kernel_size=(3, 3), stride=(1, 1), padding=(1, 1), bias=False)
          (bn2): BatchNorm2d(72, eps=1e-05, momentum=0.01, affine=True, track_running_stats=True)
        )
        (1): BasicBlock(
          (conv1): Conv2d(72, 72, kernel_size=(3, 3), stride=(1, 1), padding=(1, 1), bias=False)
          (bn1): BatchNorm2d(72, eps=1e-05, momentum=0.01, affine=True, track_running_stats=True)
          (relu): ReLU()
          (conv2): Conv2d(72, 72, kernel_size=(3, 3), stride=(1, 1), padding=(1, 1), bias=False)
          (bn2): BatchNorm2d(72, eps=1e-05, momentum=0.01, affine=True, track_running_stats=True)
        )
      )
    )
    (fuse_layers): ModuleList(
      (0): ModuleList(
        (0): None
        (1): Sequential(
          (0): Conv2d(36, 18, kernel_size=(1, 1), stride=(1, 1), bias=False)
          (1): BatchNorm2d(18, eps=1e-05, momentum=0.01, affine=True, track_running_stats=True)
        )
        (2): Sequential(
          (0): Conv2d(72, 18, kernel_size=(1, 1), stride=(1, 1), bias=False)
          (1): BatchNorm2d(18, eps=1e-05, momentum=0.01, affine=True, track_running_stats=True)
        )
      )
      (1): ModuleList(
        (0): Sequential(
          (0): Sequential(
            (0): Conv2d(18, 36, kernel_size=(3, 3), stride=(2, 2), padding=(1, 1), bias=False)
            (1): BatchNorm2d(36, eps=1e-05, momentum=0.01, affine=True, track_running_stats=True)
          )
        )
        (1): None
        (2): Sequential(
          (0): Conv2d(72, 36, kernel_size=(1, 1), stride=(1, 1), bias=False)
          (1): BatchNorm2d(36, eps=1e-05, momentum=0.01, affine=True, track_running_stats=True)
        )
      )
      (2): ModuleList(
        (0): Sequential(
          (0): Sequential(
            (0): Conv2d(18, 18, kernel_size=(3, 3), stride=(2, 2), padding=(1, 1), bias=False)
            (1): BatchNorm2d(18, eps=1e-05, momentum=0.01, affine=True, track_running_stats=True)
            (2): ReLU()
          )
          (1): Sequential(
            (0): Conv2d(18, 72, kernel_size=(3, 3), stride=(2, 2), padding=(1, 1), bias=False)
            (1): BatchNorm2d(72, eps=1e-05, momentum=0.01, affine=True, track_running_stats=True)
          )
        )
        (1): Sequential(
          (0): Sequential(
            (0): Conv2d(36, 72, kernel_size=(3, 3), stride=(2, 2), padding=(1, 1), bias=False)
            (1): BatchNorm2d(72, eps=1e-05, momentum=0.01, affine=True, track_running_stats=True)
          )
        )
        (2): None
      )
    )
    (relu): ReLU()
  )
  (85): ModuleList(
    (0): Sequential(
      (0): BasicBlock(
        (conv1): Conv2d(18, 18, kernel_size=(3, 3), stride=(1, 1), padding=(1, 1), bias=False)
        (bn1): BatchNorm2d(18, eps=1e-05, momentum=0.01, affine=True, track_running_stats=True)
        (relu): ReLU()
        (conv2): Conv2d(18, 18, kernel_size=(3, 3), stride=(1, 1), padding=(1, 1), bias=False)
        (bn2): BatchNorm2d(18, eps=1e-05, momentum=0.01, affine=True, track_running_stats=True)
      )
      (1): BasicBlock(
        (conv1): Conv2d(18, 18, kernel_size=(3, 3), stride=(1, 1), padding=(1, 1), bias=False)
        (bn1): BatchNorm2d(18, eps=1e-05, momentum=0.01, affine=True, track_running_stats=True)
        (relu): ReLU()
        (conv2): Conv2d(18, 18, kernel_size=(3, 3), stride=(1, 1), padding=(1, 1), bias=False)
        (bn2): BatchNorm2d(18, eps=1e-05, momentum=0.01, affine=True, track_running_stats=True)
      )
    )
    (1): Sequential(
      (0): BasicBlock(
        (conv1): Conv2d(36, 36, kernel_size=(3, 3), stride=(1, 1), padding=(1, 1), bias=False)
        (bn1): BatchNorm2d(36, eps=1e-05, momentum=0.01, affine=True, track_running_stats=True)
        (relu): ReLU()
        (conv2): Conv2d(36, 36, kernel_size=(3, 3), stride=(1, 1), padding=(1, 1), bias=False)
        (bn2): BatchNorm2d(36, eps=1e-05, momentum=0.01, affine=True, track_running_stats=True)
      )
      (1): BasicBlock(
        (conv1): Conv2d(36, 36, kernel_size=(3, 3), stride=(1, 1), padding=(1, 1), bias=False)
        (bn1): BatchNorm2d(36, eps=1e-05, momentum=0.01, affine=True, track_running_stats=True)
        (relu): ReLU()
        (conv2): Conv2d(36, 36, kernel_size=(3, 3), stride=(1, 1), padding=(1, 1), bias=False)
        (bn2): BatchNorm2d(36, eps=1e-05, momentum=0.01, affine=True, track_running_stats=True)
      )
    )
    (2): Sequential(
      (0): BasicBlock(
        (conv1): Conv2d(72, 72, kernel_size=(3, 3), stride=(1, 1), padding=(1, 1), bias=False)
        (bn1): BatchNorm2d(72, eps=1e-05, momentum=0.01, affine=True, track_running_stats=True)
        (relu): ReLU()
        (conv2): Conv2d(72, 72, kernel_size=(3, 3), stride=(1, 1), padding=(1, 1), bias=False)
        (bn2): BatchNorm2d(72, eps=1e-05, momentum=0.01, affine=True, track_running_stats=True)
      )
      (1): BasicBlock(
        (conv1): Conv2d(72, 72, kernel_size=(3, 3), stride=(1, 1), padding=(1, 1), bias=False)
        (bn1): BatchNorm2d(72, eps=1e-05, momentum=0.01, affine=True, track_running_stats=True)
        (relu): ReLU()
        (conv2): Conv2d(72, 72, kernel_size=(3, 3), stride=(1, 1), padding=(1, 1), bias=False)
        (bn2): BatchNorm2d(72, eps=1e-05, momentum=0.01, affine=True, track_running_stats=True)
      )
    )
  )
  (86): Sequential(
    (0): BasicBlock(
      (conv1): Conv2d(18, 18, kernel_size=(3, 3), stride=(1, 1), padding=(1, 1), bias=False)
      (bn1): BatchNorm2d(18, eps=1e-05, momentum=0.01, affine=True, track_running_stats=True)
      (relu): ReLU()
      (conv2): Conv2d(18, 18, kernel_size=(3, 3), stride=(1, 1), padding=(1, 1), bias=False)
      (bn2): BatchNorm2d(18, eps=1e-05, momentum=0.01, affine=True, track_running_stats=True)
    )
    (1): BasicBlock(
      (conv1): Conv2d(18, 18, kernel_size=(3, 3), stride=(1, 1), padding=(1, 1), bias=False)
      (bn1): BatchNorm2d(18, eps=1e-05, momentum=0.01, affine=True, track_running_stats=True)
      (relu): ReLU()
      (conv2): Conv2d(18, 18, kernel_size=(3, 3), stride=(1, 1), padding=(1, 1), bias=False)
      (bn2): BatchNorm2d(18, eps=1e-05, momentum=0.01, affine=True, track_running_stats=True)
    )
  )
  (87): BasicBlock(
    (conv1): Conv2d(18, 18, kernel_size=(3, 3), stride=(1, 1), padding=(1, 1), bias=False)
    (bn1): BatchNorm2d(18, eps=1e-05, momentum=0.01, affine=True, track_running_stats=True)
    (relu): ReLU()
    (conv2): Conv2d(18, 18, kernel_size=(3, 3), stride=(1, 1), padding=(1, 1), bias=False)
    (bn2): BatchNorm2d(18, eps=1e-05, momentum=0.01, affine=True, track_running_stats=True)
  )
  (88): Conv2d(18, 18, kernel_size=(3, 3), stride=(1, 1), padding=(1, 1), bias=False)
  (89): BatchNorm2d(18, eps=1e-05, momentum=0.01, affine=True, track_running_stats=True)
  (90): ReLU()
  (91): Conv2d(18, 18, kernel_size=(3, 3), stride=(1, 1), padding=(1, 1), bias=False)
  (92): BatchNorm2d(18, eps=1e-05, momentum=0.01, affine=True, track_running_stats=True)
  (93): BasicBlock(
    (conv1): Conv2d(18, 18, kernel_size=(3, 3), stride=(1, 1), padding=(1, 1), bias=False)
    (bn1): BatchNorm2d(18, eps=1e-05, momentum=0.01, affine=True, track_running_stats=True)
    (relu): ReLU()
    (conv2): Conv2d(18, 18, kernel_size=(3, 3), stride=(1, 1), padding=(1, 1), bias=False)
    (bn2): BatchNorm2d(18, eps=1e-05, momentum=0.01, affine=True, track_running_stats=True)
  )
  (94): Conv2d(18, 18, kernel_size=(3, 3), stride=(1, 1), padding=(1, 1), bias=False)
  (95): BatchNorm2d(18, eps=1e-05, momentum=0.01, affine=True, track_running_stats=True)
  (96): ReLU()
  (97): Conv2d(18, 18, kernel_size=(3, 3), stride=(1, 1), padding=(1, 1), bias=False)
  (98): BatchNorm2d(18, eps=1e-05, momentum=0.01, affine=True, track_running_stats=True)
  (99): Sequential(
    (0): BasicBlock(
      (conv1): Conv2d(36, 36, kernel_size=(3, 3), stride=(1, 1), padding=(1, 1), bias=False)
      (bn1): BatchNorm2d(36, eps=1e-05, momentum=0.01, affine=True, track_running_stats=True)
      (relu): ReLU()
      (conv2): Conv2d(36, 36, kernel_size=(3, 3), stride=(1, 1), padding=(1, 1), bias=False)
      (bn2): BatchNorm2d(36, eps=1e-05, momentum=0.01, affine=True, track_running_stats=True)
    )
    (1): BasicBlock(
      (conv1): Conv2d(36, 36, kernel_size=(3, 3), stride=(1, 1), padding=(1, 1), bias=False)
      (bn1): BatchNorm2d(36, eps=1e-05, momentum=0.01, affine=True, track_running_stats=True)
      (relu): ReLU()
      (conv2): Conv2d(36, 36, kernel_size=(3, 3), stride=(1, 1), padding=(1, 1), bias=False)
      (bn2): BatchNorm2d(36, eps=1e-05, momentum=0.01, affine=True, track_running_stats=True)
    )
  )
  (100): BasicBlock(
    (conv1): Conv2d(36, 36, kernel_size=(3, 3), stride=(1, 1), padding=(1, 1), bias=False)
    (bn1): BatchNorm2d(36, eps=1e-05, momentum=0.01, affine=True, track_running_stats=True)
    (relu): ReLU()
    (conv2): Conv2d(36, 36, kernel_size=(3, 3), stride=(1, 1), padding=(1, 1), bias=False)
    (bn2): BatchNorm2d(36, eps=1e-05, momentum=0.01, affine=True, track_running_stats=True)
  )
  (101): Conv2d(36, 36, kernel_size=(3, 3), stride=(1, 1), padding=(1, 1), bias=False)
  (102): BatchNorm2d(36, eps=1e-05, momentum=0.01, affine=True, track_running_stats=True)
  (103): ReLU()
  (104): Conv2d(36, 36, kernel_size=(3, 3), stride=(1, 1), padding=(1, 1), bias=False)
  (105): BatchNorm2d(36, eps=1e-05, momentum=0.01, affine=True, track_running_stats=True)
  (106): BasicBlock(
    (conv1): Conv2d(36, 36, kernel_size=(3, 3), stride=(1, 1), padding=(1, 1), bias=False)
    (bn1): BatchNorm2d(36, eps=1e-05, momentum=0.01, affine=True, track_running_stats=True)
    (relu): ReLU()
    (conv2): Conv2d(36, 36, kernel_size=(3, 3), stride=(1, 1), padding=(1, 1), bias=False)
    (bn2): BatchNorm2d(36, eps=1e-05, momentum=0.01, affine=True, track_running_stats=True)
  )
  (107): Conv2d(36, 36, kernel_size=(3, 3), stride=(1, 1), padding=(1, 1), bias=False)
  (108): BatchNorm2d(36, eps=1e-05, momentum=0.01, affine=True, track_running_stats=True)
  (109): ReLU()
  (110): Conv2d(36, 36, kernel_size=(3, 3), stride=(1, 1), padding=(1, 1), bias=False)
  (111): BatchNorm2d(36, eps=1e-05, momentum=0.01, affine=True, track_running_stats=True)
  (112): Sequential(
    (0): BasicBlock(
      (conv1): Conv2d(72, 72, kernel_size=(3, 3), stride=(1, 1), padding=(1, 1), bias=False)
      (bn1): BatchNorm2d(72, eps=1e-05, momentum=0.01, affine=True, track_running_stats=True)
      (relu): ReLU()
      (conv2): Conv2d(72, 72, kernel_size=(3, 3), stride=(1, 1), padding=(1, 1), bias=False)
      (bn2): BatchNorm2d(72, eps=1e-05, momentum=0.01, affine=True, track_running_stats=True)
    )
    (1): BasicBlock(
      (conv1): Conv2d(72, 72, kernel_size=(3, 3), stride=(1, 1), padding=(1, 1), bias=False)
      (bn1): BatchNorm2d(72, eps=1e-05, momentum=0.01, affine=True, track_running_stats=True)
      (relu): ReLU()
      (conv2): Conv2d(72, 72, kernel_size=(3, 3), stride=(1, 1), padding=(1, 1), bias=False)
      (bn2): BatchNorm2d(72, eps=1e-05, momentum=0.01, affine=True, track_running_stats=True)
    )
  )
  (113): BasicBlock(
    (conv1): Conv2d(72, 72, kernel_size=(3, 3), stride=(1, 1), padding=(1, 1), bias=False)
    (bn1): BatchNorm2d(72, eps=1e-05, momentum=0.01, affine=True, track_running_stats=True)
    (relu): ReLU()
…
      (bn1): BatchNorm2d(18, eps=1e-05, momentum=0.1, affine=True, track_running_stats=True)
      (relu): ReLU(inplace=True)
      (conv2): Conv2d(18, 18, kernel_size=(3, 3), stride=(1, 1), padding=(1, 1), bias=False)
      (bn2): BatchNorm2d(18, eps=1e-05, momentum=0.1, affine=True, track_running_stats=True)
    )
  )
  (679): BasicBlock(
    (conv1): Conv2d(54, 18, kernel_size=(3, 3), stride=(1, 1), padding=(1, 1), bias=False)
    (bn1): BatchNorm2d(18, eps=1e-05, momentum=0.1, affine=True, track_running_stats=True)
    (relu): ReLU(inplace=True)
    (conv2): Conv2d(18, 18, kernel_size=(3, 3), stride=(1, 1), padding=(1, 1), bias=False)
    (bn2): BatchNorm2d(18, eps=1e-05, momentum=0.1, affine=True, track_running_stats=True)
    (downsample): Sequential(
      (0): Conv2d(54, 18, kernel_size=(1, 1), stride=(1, 1), bias=False)
      (1): BatchNorm2d(18, eps=1e-05, momentum=0.1, affine=True, track_running_stats=True)
    )
  )
  (680): Conv2d(54, 18, kernel_size=(3, 3), stride=(1, 1), padding=(1, 1), bias=False)
  (681): BatchNorm2d(18, eps=1e-05, momentum=0.1, affine=True, track_running_stats=True)
  (682): ReLU(inplace=True)
  (683): Conv2d(18, 18, kernel_size=(3, 3), stride=(1, 1), padding=(1, 1), bias=False)
  (684): BatchNorm2d(18, eps=1e-05, momentum=0.1, affine=True, track_running_stats=True)
  (685): Sequential(
    (0): Conv2d(54, 18, kernel_size=(1, 1), stride=(1, 1), bias=False)
    (1): BatchNorm2d(18, eps=1e-05, momentum=0.1, affine=True, track_running_stats=True)
  )
  (686): Conv2d(54, 18, kernel_size=(1, 1), stride=(1, 1), bias=False)
  (687): BatchNorm2d(18, eps=1e-05, momentum=0.1, affine=True, track_running_stats=True)
  (688): BasicBlock(
    (conv1): Conv2d(18, 18, kernel_size=(3, 3), stride=(1, 1), padding=(1, 1), bias=False)
    (bn1): BatchNorm2d(18, eps=1e-05, momentum=0.1, affine=True, track_running_stats=True)
    (relu): ReLU(inplace=True)
    (conv2): Conv2d(18, 18, kernel_size=(3, 3), stride=(1, 1), padding=(1, 1), bias=False)
    (bn2): BatchNorm2d(18, eps=1e-05, momentum=0.1, affine=True, track_running_stats=True)
  )
  (689): Conv2d(18, 18, kernel_size=(3, 3), stride=(1, 1), padding=(1, 1), bias=False)
  (690): BatchNorm2d(18, eps=1e-05, momentum=0.1, affine=True, track_running_stats=True)
  (691): ReLU(inplace=True)
  (692): Conv2d(18, 18, kernel_size=(3, 3), stride=(1, 1), padding=(1, 1), bias=False)
  (693): BatchNorm2d(18, eps=1e-05, momentum=0.1, affine=True, track_running_stats=True)
  (694): ModuleDict(
    (depth): Conv2d(18, 1, kernel_size=(1, 1), stride=(1, 1))
    (normals): Conv2d(18, 3, kernel_size=(1, 1), stride=(1, 1))
  )
  (695): Conv2d(18, 1, kernel_size=(1, 1), stride=(1, 1))
  (696): Conv2d(18, 3, kernel_size=(1, 1), stride=(1, 1))
  (697): InitialTaskPredictionModule(
    (refinement): ModuleDict(
      (depth): Sequential(
        (0): BasicBlock(
          (conv1): Conv2d(108, 36, kernel_size=(3, 3), stride=(1, 1), padding=(1, 1), bias=False)
          (bn1): BatchNorm2d(36, eps=1e-05, momentum=0.1, affine=True, track_running_stats=True)
          (relu): ReLU(inplace=True)
          (conv2): Conv2d(36, 36, kernel_size=(3, 3), stride=(1, 1), padding=(1, 1), bias=False)
          (bn2): BatchNorm2d(36, eps=1e-05, momentum=0.1, affine=True, track_running_stats=True)
          (downsample): Sequential(
            (0): Conv2d(108, 36, kernel_size=(1, 1), stride=(1, 1), bias=False)
            (1): BatchNorm2d(36, eps=1e-05, momentum=0.1, affine=True, track_running_stats=True)
          )
        )
        (1): BasicBlock(
          (conv1): Conv2d(36, 36, kernel_size=(3, 3), stride=(1, 1), padding=(1, 1), bias=False)
          (bn1): BatchNorm2d(36, eps=1e-05, momentum=0.1, affine=True, track_running_stats=True)
          (relu): ReLU(inplace=True)
          (conv2): Conv2d(36, 36, kernel_size=(3, 3), stride=(1, 1), padding=(1, 1), bias=False)
          (bn2): BatchNorm2d(36, eps=1e-05, momentum=0.1, affine=True, track_running_stats=True)
        )
      )
      (normals): Sequential(
        (0): BasicBlock(
          (conv1): Conv2d(108, 36, kernel_size=(3, 3), stride=(1, 1), padding=(1, 1), bias=False)
          (bn1): BatchNorm2d(36, eps=1e-05, momentum=0.1, affine=True, track_running_stats=True)
          (relu): ReLU(inplace=True)
          (conv2): Conv2d(36, 36, kernel_size=(3, 3), stride=(1, 1), padding=(1, 1), bias=False)
          (bn2): BatchNorm2d(36, eps=1e-05, momentum=0.1, affine=True, track_running_stats=True)
          (downsample): Sequential(
            (0): Conv2d(108, 36, kernel_size=(1, 1), stride=(1, 1), bias=False)
            (1): BatchNorm2d(36, eps=1e-05, momentum=0.1, affine=True, track_running_stats=True)
          )
        )
        (1): BasicBlock(
          (conv1): Conv2d(36, 36, kernel_size=(3, 3), stride=(1, 1), padding=(1, 1), bias=False)
          (bn1): BatchNorm2d(36, eps=1e-05, momentum=0.1, affine=True, track_running_stats=True)
          (relu): ReLU(inplace=True)
          (conv2): Conv2d(36, 36, kernel_size=(3, 3), stride=(1, 1), padding=(1, 1), bias=False)
          (bn2): BatchNorm2d(36, eps=1e-05, momentum=0.1, affine=True, track_running_stats=True)
        )
      )
    )
    (decoders): ModuleDict(
      (depth): Conv2d(36, 1, kernel_size=(1, 1), stride=(1, 1))
      (normals): Conv2d(36, 3, kernel_size=(1, 1), stride=(1, 1))
    )
  )
  (698): ModuleDict(
    (depth): Sequential(
      (0): BasicBlock(
        (conv1): Conv2d(108, 36, kernel_size=(3, 3), stride=(1, 1), padding=(1, 1), bias=False)
        (bn1): BatchNorm2d(36, eps=1e-05, momentum=0.1, affine=True, track_running_stats=True)
        (relu): ReLU(inplace=True)
        (conv2): Conv2d(36, 36, kernel_size=(3, 3), stride=(1, 1), padding=(1, 1), bias=False)
        (bn2): BatchNorm2d(36, eps=1e-05, momentum=0.1, affine=True, track_running_stats=True)
        (downsample): Sequential(
          (0): Conv2d(108, 36, kernel_size=(1, 1), stride=(1, 1), bias=False)
          (1): BatchNorm2d(36, eps=1e-05, momentum=0.1, affine=True, track_running_stats=True)
        )
      )
      (1): BasicBlock(
        (conv1): Conv2d(36, 36, kernel_size=(3, 3), stride=(1, 1), padding=(1, 1), bias=False)
        (bn1): BatchNorm2d(36, eps=1e-05, momentum=0.1, affine=True, track_running_stats=True)
        (relu): ReLU(inplace=True)
        (conv2): Conv2d(36, 36, kernel_size=(3, 3), stride=(1, 1), padding=(1, 1), bias=False)
        (bn2): BatchNorm2d(36, eps=1e-05, momentum=0.1, affine=True, track_running_stats=True)
      )
    )
    (normals): Sequential(
      (0): BasicBlock(
        (conv1): Conv2d(108, 36, kernel_size=(3, 3), stride=(1, 1), padding=(1, 1), bias=False)
        (bn1): BatchNorm2d(36, eps=1e-05, momentum=0.1, affine=True, track_running_stats=True)
        (relu): ReLU(inplace=True)
        (conv2): Conv2d(36, 36, kernel_size=(3, 3), stride=(1, 1), padding=(1, 1), bias=False)
        (bn2): BatchNorm2d(36, eps=1e-05, momentum=0.1, affine=True, track_running_stats=True)
        (downsample): Sequential(
          (0): Conv2d(108, 36, kernel_size=(1, 1), stride=(1, 1), bias=False)
          (1): BatchNorm2d(36, eps=1e-05, momentum=0.1, affine=True, track_running_stats=True)
        )
      )
      (1): BasicBlock(
        (conv1): Conv2d(36, 36, kernel_size=(3, 3), stride=(1, 1), padding=(1, 1), bias=False)
        (bn1): BatchNorm2d(36, eps=1e-05, momentum=0.1, affine=True, track_running_stats=True)
        (relu): ReLU(inplace=True)
        (conv2): Conv2d(36, 36, kernel_size=(3, 3), stride=(1, 1), padding=(1, 1), bias=False)
        (bn2): BatchNorm2d(36, eps=1e-05, momentum=0.1, affine=True, track_running_stats=True)
      )
    )
  )
  (699): Sequential(
    (0): BasicBlock(
      (conv1): Conv2d(108, 36, kernel_size=(3, 3), stride=(1, 1), padding=(1, 1), bias=False)
      (bn1): BatchNorm2d(36, eps=1e-05, momentum=0.1, affine=True, track_running_stats=True)
      (relu): ReLU(inplace=True)
      (conv2): Conv2d(36, 36, kernel_size=(3, 3), stride=(1, 1), padding=(1, 1), bias=False)
      (bn2): BatchNorm2d(36, eps=1e-05, momentum=0.1, affine=True, track_running_stats=True)
      (downsample): Sequential(
        (0): Conv2d(108, 36, kernel_size=(1, 1), stride=(1, 1), bias=False)
        (1): BatchNorm2d(36, eps=1e-05, momentum=0.1, affine=True, track_running_stats=True)
      )
    )
    (1): BasicBlock(
      (conv1): Conv2d(36, 36, kernel_size=(3, 3), stride=(1, 1), padding=(1, 1), bias=False)
      (bn1): BatchNorm2d(36, eps=1e-05, momentum=0.1, affine=True, track_running_stats=True)
      (relu): ReLU(inplace=True)
      (conv2): Conv2d(36, 36, kernel_size=(3, 3), stride=(1, 1), padding=(1, 1), bias=False)
      (bn2): BatchNorm2d(36, eps=1e-05, momentum=0.1, affine=True, track_running_stats=True)
    )
  )
  (700): BasicBlock(
    (conv1): Conv2d(108, 36, kernel_size=(3, 3), stride=(1, 1), padding=(1, 1), bias=False)
    (bn1): BatchNorm2d(36, eps=1e-05, momentum=0.1, affine=True, track_running_stats=True)
    (relu): ReLU(inplace=True)
    (conv2): Conv2d(36, 36, kernel_size=(3, 3), stride=(1, 1), padding=(1, 1), bias=False)
    (bn2): BatchNorm2d(36, eps=1e-05, momentum=0.1, affine=True, track_running_stats=True)
    (downsample): Sequential(
      (0): Conv2d(108, 36, kernel_size=(1, 1), stride=(1, 1), bias=False)
      (1): BatchNorm2d(36, eps=1e-05, momentum=0.1, affine=True, track_running_stats=True)
    )
  )
  (701): Conv2d(108, 36, kernel_size=(3, 3), stride=(1, 1), padding=(1, 1), bias=False)
  (702): BatchNorm2d(36, eps=1e-05, momentum=0.1, affine=True, track_running_stats=True)
  (703): ReLU(inplace=True)
  (704): Conv2d(36, 36, kernel_size=(3, 3), stride=(1, 1), padding=(1, 1), bias=False)
  (705): BatchNorm2d(36, eps=1e-05, momentum=0.1, affine=True, track_running_stats=True)
  (706): Sequential(
    (0): Conv2d(108, 36, kernel_size=(1, 1), stride=(1, 1), bias=False)
    (1): BatchNorm2d(36, eps=1e-05, momentum=0.1, affine=True, track_running_stats=True)
  )
  (707): Conv2d(108, 36, kernel_size=(1, 1), stride=(1, 1), bias=False)
  (708): BatchNorm2d(36, eps=1e-05, momentum=0.1, affine=True, track_running_stats=True)
  (709): BasicBlock(
    (conv1): Conv2d(36, 36, kernel_size=(3, 3), stride=(1, 1), padding=(1, 1), bias=False)
    (bn1): BatchNorm2d(36, eps=1e-05, momentum=0.1, affine=True, track_running_stats=True)
    (relu): ReLU(inplace=True)
    (conv2): Conv2d(36, 36, kernel_size=(3, 3), stride=(1, 1), padding=(1, 1), bias=False)
    (bn2): BatchNorm2d(36, eps=1e-05, momentum=0.1, affine=True, track_running_stats=True)
  )
  (710): Conv2d(36, 36, kernel_size=(3, 3), stride=(1, 1), padding=(1, 1), bias=False)
  (711): BatchNorm2d(36, eps=1e-05, momentum=0.1, affine=True, track_running_stats=True)
  (712): ReLU(inplace=True)
  (713): Conv2d(36, 36, kernel_size=(3, 3), stride=(1, 1), padding=(1, 1), bias=False)
  (714): BatchNorm2d(36, eps=1e-05, momentum=0.1, affine=True, track_running_stats=True)
  (715): Sequential(
    (0): BasicBlock(
      (conv1): Conv2d(108, 36, kernel_size=(3, 3), stride=(1, 1), padding=(1, 1), bias=False)
      (bn1): BatchNorm2d(36, eps=1e-05, momentum=0.1, affine=True, track_running_stats=True)
      (relu): ReLU(inplace=True)
      (conv2): Conv2d(36, 36, kernel_size=(3, 3), stride=(1, 1), padding=(1, 1), bias=False)
      (bn2): BatchNorm2d(36, eps=1e-05, momentum=0.1, affine=True, track_running_stats=True)
      (downsample): Sequential(
        (0): Conv2d(108, 36, kernel_size=(1, 1), stride=(1, 1), bias=False)
        (1): BatchNorm2d(36, eps=1e-05, momentum=0.1, affine=True, track_running_stats=True)
      )
    )
    (1): BasicBlock(
      (conv1): Conv2d(36, 36, kernel_size=(3, 3), stride=(1, 1), padding=(1, 1), bias=False)
      (bn1): BatchNorm2d(36, eps=1e-05, momentum=0.1, affine=True, track_running_stats=True)
      (relu): ReLU(inplace=True)
      (conv2): Conv2d(36, 36, kernel_size=(3, 3), stride=(1, 1), padding=(1, 1), bias=False)
      (bn2): BatchNorm2d(36, eps=1e-05, momentum=0.1, affine=True, track_running_stats=True)
    )
  )
  (716): BasicBlock(
    (conv1): Conv2d(108, 36, kernel_size=(3, 3), stride=(1, 1), padding=(1, 1), bias=False)
    (bn1): BatchNorm2d(36, eps=1e-05, momentum=0.1, affine=True, track_running_stats=True)
    (relu): ReLU(inplace=True)
    (conv2): Conv2d(36, 36, kernel_size=(3, 3), stride=(1, 1), padding=(1, 1), bias=False)
    (bn2): BatchNorm2d(36, eps=1e-05, momentum=0.1, affine=True, track_running_stats=True)
    (downsample): Sequential(
      (0): Conv2d(108, 36, kernel_size=(1, 1), stride=(1, 1), bias=False)
      (1): BatchNorm2d(36, eps=1e-05, momentum=0.1, affine=True, track_running_stats=True)
    )
  )
  (717): Conv2d(108, 36, kernel_size=(3, 3), stride=(1, 1), padding=(1, 1), bias=False)
  (718): BatchNorm2d(36, eps=1e-05, momentum=0.1, affine=True, track_running_stats=True)
  (719): ReLU(inplace=True)
  (720): Conv2d(36, 36, kernel_size=(3, 3), stride=(1, 1), padding=(1, 1), bias=False)
  (721): BatchNorm2d(36, eps=1e-05, momentum=0.1, affine=True, track_running_stats=True)
  (722): Sequential(
    (0): Conv2d(108, 36, kernel_size=(1, 1), stride=(1, 1), bias=False)
    (1): BatchNorm2d(36, eps=1e-05, momentum=0.1, affine=True, track_running_stats=True)
  )
  (723): Conv2d(108, 36, kernel_size=(1, 1), stride=(1, 1), bias=False)
  (724): BatchNorm2d(36, eps=1e-05, momentum=0.1, affine=True, track_running_stats=True)
  (725): BasicBlock(
    (conv1): Conv2d(36, 36, kernel_size=(3, 3), stride=(1, 1), padding=(1, 1), bias=False)
    (bn1): BatchNorm2d(36, eps=1e-05, momentum=0.1, affine=True, track_running_stats=True)
    (relu): ReLU(inplace=True)
    (conv2): Conv2d(36, 36, kernel_size=(3, 3), stride=(1, 1), padding=(1, 1), bias=False)
    (bn2): BatchNorm2d(36, eps=1e-05, momentum=0.1, affine=True, track_running_stats=True)
  )
  (726): Conv2d(36, 36, kernel_size=(3, 3), stride=(1, 1), padding=(1, 1), bias=False)
  (727): BatchNorm2d(36, eps=1e-05, momentum=0.1, affine=True, track_running_stats=True)
  (728): ReLU(inplace=True)
  (729): Conv2d(36, 36, kernel_size=(3, 3), stride=(1, 1), padding=(1, 1), bias=False)
  (730): BatchNorm2d(36, eps=1e-05, momentum=0.1, affine=True, track_running_stats=True)
  (731): ModuleDict(
    (depth): Conv2d(36, 1, kernel_size=(1, 1), stride=(1, 1))
    (normals): Conv2d(36, 3, kernel_size=(1, 1), stride=(1, 1))
  )
  (732): Conv2d(36, 1, kernel_size=(1, 1), stride=(1, 1))
  (733): Conv2d(36, 3, kernel_size=(1, 1), stride=(1, 1))
  (734): InitialTaskPredictionModule(
    (refinement): ModuleDict(
      (depth): Sequential(
        (0): BasicBlock(
          (conv1): Conv2d(216, 72, kernel_size=(3, 3), stride=(1, 1), padding=(1, 1), bias=False)
          (bn1): BatchNorm2d(72, eps=1e-05, momentum=0.1, affine=True, track_running_stats=True)
          (relu): ReLU(inplace=True)
          (conv2): Conv2d(72, 72, kernel_size=(3, 3), stride=(1, 1), padding=(1, 1), bias=False)
          (bn2): BatchNorm2d(72, eps=1e-05, momentum=0.1, affine=True, track_running_stats=True)
          (downsample): Sequential(
            (0): Conv2d(216, 72, kernel_size=(1, 1), stride=(1, 1), bias=False)
            (1): BatchNorm2d(72, eps=1e-05, momentum=0.1, affine=True, track_running_stats=True)
          )
        )
        (1): BasicBlock(
          (conv1): Conv2d(72, 72, kernel_size=(3, 3), stride=(1, 1), padding=(1, 1), bias=False)
          (bn1): BatchNorm2d(72, eps=1e-05, momentum=0.1, affine=True, track_running_stats=True)
          (relu): ReLU(inplace=True)
          (conv2): Conv2d(72, 72, kernel_size=(3, 3), stride=(1, 1), padding=(1, 1), bias=False)
          (bn2): BatchNorm2d(72, eps=1e-05, momentum=0.1, affine=True, track_running_stats=True)
        )
      )
      (normals): Sequential(
        (0): BasicBlock(
          (conv1): Conv2d(216, 72, kernel_size=(3, 3), stride=(1, 1), padding=(1, 1), bias=False)
          (bn1): BatchNorm2d(72, eps=1e-05, momentum=0.1, affine=True, track_running_stats=True)
          (relu): ReLU(inplace=True)
          (conv2): Conv2d(72, 72, kernel_size=(3, 3), stride=(1, 1), padding=(1, 1), bias=False)
          (bn2): BatchNorm2d(72, eps=1e-05, momentum=0.1, affine=True, track_running_stats=True)
          (downsample): Sequential(
            (0): Conv2d(216, 72, kernel_size=(1, 1), stride=(1, 1), bias=False)
            (1): BatchNorm2d(72, eps=1e-05, momentum=0.1, affine=True, track_running_stats=True)
          )
        )
        (1): BasicBlock(
          (conv1): Conv2d(72, 72, kernel_size=(3, 3), stride=(1, 1), padding=(1, 1), bias=False)
          (bn1): BatchNorm2d(72, eps=1e-05, momentum=0.1, affine=True, track_running_stats=True)
          (relu): ReLU(inplace=True)
          (conv2): Conv2d(72, 72, kernel_size=(3, 3), stride=(1, 1), padding=(1, 1), bias=False)
          (bn2): BatchNorm2d(72, eps=1e-05, momentum=0.1, affine=True, track_running_stats=True)
        )
      )
    )
    (decoders): ModuleDict(
      (depth): Conv2d(72, 1, kernel_size=(1, 1), stride=(1, 1))
      (normals): Conv2d(72, 3, kernel_size=(1, 1), stride=(1, 1))
    )
  )
  (735): ModuleDict(
    (depth): Sequential(
      (0): BasicBlock(
        (conv1): Conv2d(216, 72, kernel_size=(3, 3), stride=(1, 1), padding=(1, 1), bias=False)
        (bn1): BatchNorm2d(72, eps=1e-05, momentum=0.1, affine=True, track_running_stats=True)
        (relu): ReLU(inplace=True)
        (conv2): Conv2d(72, 72, kernel_size=(3, 3), stride=(1, 1), padding=(1, 1), bias=False)
        (bn2): BatchNorm2d(72, eps=1e-05, momentum=0.1, affine=True, track_running_stats=True)
        (downsample): Sequential(
          (0): Conv2d(216, 72, kernel_size=(1, 1), stride=(1, 1), bias=False)
          (1): BatchNorm2d(72, eps=1e-05, momentum=0.1, affine=True, track_running_stats=True)
        )
      )
      (1): BasicBlock(
        (conv1): Conv2d(72, 72, kernel_size=(3, 3), stride=(1, 1), padding=(1, 1), bias=False)
        (bn1): BatchNorm2d(72, eps=1e-05, momentum=0.1, affine=True, track_running_stats=True)
        (relu): ReLU(inplace=True)
        (conv2): Conv2d(72, 72, kernel_size=(3, 3), stride=(1, 1), padding=(1, 1), bias=False)
        (bn2): BatchNorm2d(72, eps=1e-05, momentum=0.1, affine=True, track_running_stats=True)
      )
    )
    (normals): Sequential(
      (0): BasicBlock(
        (conv1): Conv2d(216, 72, kernel_size=(3, 3), stride=(1, 1), padding=(1, 1), bias=False)
        (bn1): BatchNorm2d(72, eps=1e-05, momentum=0.1, affine=True, track_running_stats=True)
        (relu): ReLU(inplace=True)
        (conv2): Conv2d(72, 72, kernel_size=(3, 3), stride=(1, 1), padding=(1, 1), bias=False)
        (bn2): BatchNorm2d(72, eps=1e-05, momentum=0.1, affine=True, track_running_stats=True)
        (downsample): Sequential(
          (0): Conv2d(216, 72, kernel_size=(1, 1), stride=(1, 1), bias=False)
          (1): BatchNorm2d(72, eps=1e-05, momentum=0.1, affine=True, track_running_stats=True)
        )
      )
      (1): BasicBlock(
        (conv1): Conv2d(72, 72, kernel_size=(3, 3), stride=(1, 1), padding=(1, 1), bias=False)
        (bn1): BatchNorm2d(72, eps=1e-05, momentum=0.1, affine=True, track_running_stats=True)
        (relu): ReLU(inplace=True)
        (conv2): Conv2d(72, 72, kernel_size=(3, 3), stride=(1, 1), padding=(1, 1), bias=False)
        (bn2): BatchNorm2d(72, eps=1e-05, momentum=0.1, affine=True, track_running_stats=True)
      )
    )
  )
  (736): Sequential(
    (0): BasicBlock(
      (conv1): Conv2d(216, 72, kernel_size=(3, 3), stride=(1, 1), padding=(1, 1), bias=False)
      (bn1): BatchNorm2d(72, eps=1e-05, momentum=0.1, affine=True, track_running_stats=True)
      (relu): ReLU(inplace=True)
      (conv2): Conv2d(72, 72, kernel_size=(3, 3), stride=(1, 1), padding=(1, 1), bias=False)
      (bn2): BatchNorm2d(72, eps=1e-05, momentum=0.1, affine=True, track_running_stats=True)
      (downsample): Sequential(
        (0): Conv2d(216, 72, kernel_size=(1, 1), stride=(1, 1), bias=False)
        (1): BatchNorm2d(72, eps=1e-05, momentum=0.1, affine=True, track_running_stats=True)
      )
    )
    (1): BasicBlock(
      (conv1): Conv2d(72, 72, kernel_size=(3, 3), stride=(1, 1), padding=(1, 1), bias=False)
      (bn1): BatchNorm2d(72, eps=1e-05, momentum=0.1, affine=True, track_running_stats=True)
      (relu): ReLU(inplace=True)
      (conv2): Conv2d(72, 72, kernel_size=(3, 3), stride=(1, 1), padding=(1, 1), bias=False)
      (bn2): BatchNorm2d(72, eps=1e-05, momentum=0.1, affine=True, track_running_stats=True)
    )
  )
  (737): BasicBlock(
    (conv1): Conv2d(216, 72, kernel_size=(3, 3), stride=(1, 1), padding=(1, 1), bias=False)
    (bn1): BatchNorm2d(72, eps=1e-05, momentum=0.1, affine=True, track_running_stats=True)
    (relu): ReLU(inplace=True)
    (conv2): Conv2d(72, 72, kernel_size=(3, 3), stride=(1, 1), padding=(1, 1), bias=False)
    (bn2): BatchNorm2d(72, eps=1e-05, momentum=0.1, affine=True, track_running_stats=True)
    (downsample): Sequential(
      (0): Conv2d(216, 72, kernel_size=(1, 1), stride=(1, 1), bias=False)
      (1): BatchNorm2d(72, eps=1e-05, momentum=0.1, affine=True, track_running_stats=True)
    )
  )
  (738): Conv2d(216, 72, kernel_size=(3, 3), stride=(1, 1), padding=(1, 1), bias=False)
  (739): BatchNorm2d(72, eps=1e-05, momentum=0.1, affine=True, track_running_stats=True)
  (740): ReLU(inplace=True)
  (741): Conv2d(72, 72, kernel_size=(3, 3), stride=(1, 1), padding=(1, 1), bias=False)
  (742): BatchNorm2d(72, eps=1e-05, momentum=0.1, affine=True, track_running_stats=True)
  (743): Sequential(
    (0): Conv2d(216, 72, kernel_size=(1, 1), stride=(1, 1), bias=False)
    (1): BatchNorm2d(72, eps=1e-05, momentum=0.1, affine=True, track_running_stats=True)
  )
  (744): Conv2d(216, 72, kernel_size=(1, 1), stride=(1, 1), bias=False)
  (745): BatchNorm2d(72, eps=1e-05, momentum=0.1, affine=True, track_running_stats=True)
  (746): BasicBlock(
    (conv1): Conv2d(72, 72, kernel_size=(3, 3), stride=(1, 1), padding=(1, 1), bias=False)
    (bn1): BatchNorm2d(72, eps=1e-05, momentum=0.1, affine=True, track_running_stats=True)
    (relu): ReLU(inplace=True)
    (conv2): Conv2d(72, 72, kernel_size=(3, 3), stride=(1, 1), padding=(1, 1), bias=False)
    (bn2): BatchNorm2d(72, eps=1e-05, momentum=0.1, affine=True, track_running_stats=True)
  )
  (747): Conv2d(72, 72, kernel_size=(3, 3), stride=(1, 1), padding=(1, 1), bias=False)
  (748): BatchNorm2d(72, eps=1e-05, momentum=0.1, affine=True, track_running_stats=True)
  (749): ReLU(inplace=True)
  (750): Conv2d(72, 72, kernel_size=(3, 3), stride=(1, 1), padding=(1, 1), bias=False)
  (751): BatchNorm2d(72, eps=1e-05, momentum=0.1, affine=True, track_running_stats=True)
  (752): Sequential(
    (0): BasicBlock(
      (conv1): Conv2d(216, 72, kernel_size=(3, 3), stride=(1, 1), padding=(1, 1), bias=False)
      (bn1): BatchNorm2d(72, eps=1e-05, momentum=0.1, affine=True, track_running_stats=True)
      (relu): ReLU(inplace=True)
      (conv2): Conv2d(72, 72, kernel_size=(3, 3), stride=(1, 1), padding=(1, 1), bias=False)
      (bn2): BatchNorm2d(72, eps=1e-05, momentum=0.1, affine=True, track_running_stats=True)
      (downsample): Sequential(
        (0): Conv2d(216, 72, kernel_size=(1, 1), stride=(1, 1), bias=False)
        (1): BatchNorm2d(72, eps=1e-05, momentum=0.1, affine=True, track_running_stats=True)
      )
    )
    (1): BasicBlock(
      (conv1): Conv2d(72, 72, kernel_size=(3, 3), stride=(1, 1), padding=(1, 1), bias=False)
      (bn1): BatchNorm2d(72, eps=1e-05, momentum=0.1, affine=True, track_running_stats=True)
      (relu): ReLU(inplace=True)
      (conv2): Conv2d(72, 72, kernel_size=(3, 3), stride=(1, 1), padding=(1, 1), bias=False)
      (bn2): BatchNorm2d(72, eps=1e-05, momentum=0.1, affine=True, track_running_stats=True)
    )
  )
  (753): BasicBlock(
    (conv1): Conv2d(216, 72, kernel_size=(3, 3), stride=(1, 1), padding=(1, 1), bias=False)
    (bn1): BatchNorm2d(72, eps=1e-05, momentum=0.1, affine=True, track_running_stats=True)
    (relu): ReLU(inplace=True)
    (conv2): Conv2d(72, 72, kernel_size=(3, 3), stride=(1, 1), padding=(1, 1), bias=False)
    (bn2): BatchNorm2d(72, eps=1e-05, momentum=0.1, affine=True, track_running_stats=True)
    (downsample): Sequential(
      (0): Conv2d(216, 72, kernel_size=(1, 1), stride=(1, 1), bias=False)
      (1): BatchNorm2d(72, eps=1e-05, momentum=0.1, affine=True, track_running_stats=True)
    )
  )
  (754): Conv2d(216, 72, kernel_size=(3, 3), stride=(1, 1), padding=(1, 1), bias=False)
  (755): BatchNorm2d(72, eps=1e-05, momentum=0.1, affine=True, track_running_stats=True)
  (756): ReLU(inplace=True)
  (757): Conv2d(72, 72, kernel_size=(3, 3), stride=(1, 1), padding=(1, 1), bias=False)
  (758): BatchNorm2d(72, eps=1e-05, momentum=0.1, affine=True, track_running_stats=True)
  (759): Sequential(
    (0): Conv2d(216, 72, kernel_size=(1, 1), stride=(1, 1), bias=False)
    (1): BatchNorm2d(72, eps=1e-05, momentum=0.1, affine=True, track_running_stats=True)
  )
  (760): Conv2d(216, 72, kernel_size=(1, 1), stride=(1, 1), bias=False)
  (761): BatchNorm2d(72, eps=1e-05, momentum=0.1, affine=True, track_running_stats=True)
  (762): BasicBlock(
    (conv1): Conv2d(72, 72, kernel_size=(3, 3), stride=(1, 1), padding=(1, 1), bias=False)
    (bn1): BatchNorm2d(72, eps=1e-05, momentum=0.1, affine=True, track_running_stats=True)
    (relu): ReLU(inplace=True)
    (conv2): Conv2d(72, 72, kernel_size=(3, 3), stride=(1, 1), padding=(1, 1), bias=False)
    (bn2): BatchNorm2d(72, eps=1e-05, momentum=0.1, affine=True, track_running_stats=True)
  )
  (763): Conv2d(72, 72, kernel_size=(3, 3), stride=(1, 1), padding=(1, 1), bias=False)
  (764): BatchNorm2d(72, eps=1e-05, momentum=0.1, affine=True, track_running_stats=True)
  (765): ReLU(inplace=True)
  (766): Conv2d(72, 72, kernel_size=(3, 3), stride=(1, 1), padding=(1, 1), bias=False)
  (767): BatchNorm2d(72, eps=1e-05, momentum=0.1, affine=True, track_running_stats=True)
  (768): ModuleDict(
    (depth): Conv2d(72, 1, kernel_size=(1, 1), stride=(1, 1))
    (normals): Conv2d(72, 3, kernel_size=(1, 1), stride=(1, 1))
  )
  (769): Conv2d(72, 1, kernel_size=(1, 1), stride=(1, 1))
  (770): Conv2d(72, 3, kernel_size=(1, 1), stride=(1, 1))
  (771): InitialTaskPredictionModule(
    (refinement): ModuleDict(
      (depth): Sequential(
        (0): BasicBlock(
          (conv1): Conv2d(144, 144, kernel_size=(3, 3), stride=(1, 1), padding=(1, 1), bias=False)
          (bn1): BatchNorm2d(144, eps=1e-05, momentum=0.1, affine=True, track_running_stats=True)
          (relu): ReLU(inplace=True)
          (conv2): Conv2d(144, 144, kernel_size=(3, 3), stride=(1, 1), padding=(1, 1), bias=False)
          (bn2): BatchNorm2d(144, eps=1e-05, momentum=0.1, affine=True, track_running_stats=True)
        )
        (1): BasicBlock(
          (conv1): Conv2d(144, 144, kernel_size=(3, 3), stride=(1, 1), padding=(1, 1), bias=False)
          (bn1): BatchNorm2d(144, eps=1e-05, momentum=0.1, affine=True, track_running_stats=True)
          (relu): ReLU(inplace=True)
          (conv2): Conv2d(144, 144, kernel_size=(3, 3), stride=(1, 1), padding=(1, 1), bias=False)
          (bn2): BatchNorm2d(144, eps=1e-05, momentum=0.1, affine=True, track_running_stats=True)
        )
      )
      (normals): Sequential(
        (0): BasicBlock(
          (conv1): Conv2d(144, 144, kernel_size=(3, 3), stride=(1, 1), padding=(1, 1), bias=False)
          (bn1): BatchNorm2d(144, eps=1e-05, momentum=0.1, affine=True, track_running_stats=True)
          (relu): ReLU(inplace=True)
          (conv2): Conv2d(144, 144, kernel_size=(3, 3), stride=(1, 1), padding=(1, 1), bias=False)
          (bn2): BatchNorm2d(144, eps=1e-05, momentum=0.1, affine=True, track_running_stats=True)
        )
        (1): BasicBlock(
          (conv1): Conv2d(144, 144, kernel_size=(3, 3), stride=(1, 1), padding=(1, 1), bias=False)
          (bn1): BatchNorm2d(144, eps=1e-05, momentum=0.1, affine=True, track_running_stats=True)
          (relu): ReLU(inplace=True)
          (conv2): Conv2d(144, 144, kernel_size=(3, 3), stride=(1, 1), padding=(1, 1), bias=False)
          (bn2): BatchNorm2d(144, eps=1e-05, momentum=0.1, affine=True, track_running_stats=True)
        )
      )
    )
    (decoders): ModuleDict(
      (depth): Conv2d(144, 1, kernel_size=(1, 1), stride=(1, 1))
      (normals): Conv2d(144, 3, kernel_size=(1, 1), stride=(1, 1))
    )
  )
  (772): ModuleDict(
    (depth): Sequential(
      (0): BasicBlock(
        (conv1): Conv2d(144, 144, kernel_size=(3, 3), stride=(1, 1), padding=(1, 1), bias=False)
        (bn1): BatchNorm2d(144, eps=1e-05, momentum=0.1, affine=True, track_running_stats=True)
        (relu): ReLU(inplace=True)
        (conv2): Conv2d(144, 144, kernel_size=(3, 3), stride=(1, 1), padding=(1, 1), bias=False)
        (bn2): BatchNorm2d(144, eps=1e-05, momentum=0.1, affine=True, track_running_stats=True)
      )
      (1): BasicBlock(
        (conv1): Conv2d(144, 144, kernel_size=(3, 3), stride=(1, 1), padding=(1, 1), bias=False)
        (bn1): BatchNorm2d(144, eps=1e-05, momentum=0.1, affine=True, track_running_stats=True)
        (relu): ReLU(inplace=True)
        (conv2): Conv2d(144, 144, kernel_size=(3, 3), stride=(1, 1), padding=(1, 1), bias=False)
        (bn2): BatchNorm2d(144, eps=1e-05, momentum=0.1, affine=True, track_running_stats=True)
      )
    )
    (normals): Sequential(
      (0): BasicBlock(
        (conv1): Conv2d(144, 144, kernel_size=(3, 3), stride=(1, 1), padding=(1, 1), bias=False)
        (bn1): BatchNorm2d(144, eps=1e-05, momentum=0.1, affine=True, track_running_stats=True)
        (relu): ReLU(inplace=True)
        (conv2): Conv2d(144, 144, kernel_size=(3, 3), stride=(1, 1), padding=(1, 1), bias=False)
        (bn2): BatchNorm2d(144, eps=1e-05, momentum=0.1, affine=True, track_running_stats=True)
      )
      (1): BasicBlock(
        (conv1): Conv2d(144, 144, kernel_size=(3, 3), stride=(1, 1), padding=(1, 1), bias=False)
        (bn1): BatchNorm2d(144, eps=1e-05, momentum=0.1, affine=True, track_running_stats=True)
        (relu): ReLU(inplace=True)
        (conv2): Conv2d(144, 144, kernel_size=(3, 3), stride=(1, 1), padding=(1, 1), bias=False)
        (bn2): BatchNorm2d(144, eps=1e-05, momentum=0.1, affine=True, track_running_stats=True)
      )
    )
  )
  (773): Sequential(
    (0): BasicBlock(
      (conv1): Conv2d(144, 144, kernel_size=(3, 3), stride=(1, 1), padding=(1, 1), bias=False)
      (bn1): BatchNorm2d(144, eps=1e-05, momentum=0.1, affine=True, track_running_stats=True)
      (relu): ReLU(inplace=True)
      (conv2): Conv2d(144, 144, kernel_size=(3, 3), stride=(1, 1), padding=(1, 1), bias=False)
      (bn2): BatchNorm2d(144, eps=1e-05, momentum=0.1, affine=True, track_running_stats=True)
    )
    (1): BasicBlock(
      (conv1): Conv2d(144, 144, kernel_size=(3, 3), stride=(1, 1), padding=(1, 1), bias=False)
      (bn1): BatchNorm2d(144, eps=1e-05, momentum=0.1, affine=True, track_running_stats=True)
      (relu): ReLU(inplace=True)
      (conv2): Conv2d(144, 144, kernel_size=(3, 3), stride=(1, 1), padding=(1, 1), bias=False)
      (bn2): BatchNorm2d(144, eps=1e-05, momentum=0.1, affine=True, track_running_stats=True)
    )
  )
  (774): BasicBlock(
    (conv1): Conv2d(144, 144, kernel_size=(3, 3), stride=(1, 1), padding=(1, 1), bias=False)
    (bn1): BatchNorm2d(144, eps=1e-05, momentum=0.1, affine=True, track_running_stats=True)
    (relu): ReLU(inplace=True)
    (conv2): Conv2d(144, 144, kernel_size=(3, 3), stride=(1, 1), padding=(1, 1), bias=False)
    (bn2): BatchNorm2d(144, eps=1e-05, momentum=0.1, affine=True, track_running_stats=True)
  )
  (775): Conv2d(144, 144, kernel_size=(3, 3), stride=(1, 1), padding=(1, 1), bias=False)
  (776): BatchNorm2d(144, eps=1e-05, momentum=0.1, affine=True, track_running_stats=True)
  (777): ReLU(inplace=True)
  (778): Conv2d(144, 144, kernel_size=(3, 3), stride=(1, 1), padding=(1, 1), bias=False)
  (779): BatchNorm2d(144, eps=1e-05, momentum=0.1, affine=True, track_running_stats=True)
  (780): BasicBlock(
    (conv1): Conv2d(144, 144, kernel_size=(3, 3), stride=(1, 1), padding=(1, 1), bias=False)
    (bn1): BatchNorm2d(144, eps=1e-05, momentum=0.1, affine=True, track_running_stats=True)
    (relu): ReLU(inplace=True)
    (conv2): Conv2d(144, 144, kernel_size=(3, 3), stride=(1, 1), padding=(1, 1), bias=False)
    (bn2): BatchNorm2d(144, eps=1e-05, momentum=0.1, affine=True, track_running_stats=True)
  )
  (781): Conv2d(144, 144, kernel_size=(3, 3), stride=(1, 1), padding=(1, 1), bias=False)
  (782): BatchNorm2d(144, eps=1e-05, momentum=0.1, affine=True, track_running_stats=True)
  (783): ReLU(inplace=True)
  (784): Conv2d(144, 144, kernel_size=(3, 3), stride=(1, 1), padding=(1, 1), bias=False)
  (785): BatchNorm2d(144, eps=1e-05, momentum=0.1, affine=True, track_running_stats=True)
  (786): Sequential(
    (0): BasicBlock(
      (conv1): Conv2d(144, 144, kernel_size=(3, 3), stride=(1, 1), padding=(1, 1), bias=False)
      (bn1): BatchNorm2d(144, eps=1e-05, momentum=0.1, affine=True, track_running_stats=True)
      (relu): ReLU(inplace=True)
      (conv2): Conv2d(144, 144, kernel_size=(3, 3), stride=(1, 1), padding=(1, 1), bias=False)
      (bn2): BatchNorm2d(144, eps=1e-05, momentum=0.1, affine=True, track_running_stats=True)
    )
    (1): BasicBlock(
      (conv1): Conv2d(144, 144, kernel_size=(3, 3), stride=(1, 1), padding=(1, 1), bias=False)
      (bn1): BatchNorm2d(144, eps=1e-05, momentum=0.1, affine=True, track_running_stats=True)
      (relu): ReLU(inplace=True)
      (conv2): Conv2d(144, 144, kernel_size=(3, 3), stride=(1, 1), padding=(1, 1), bias=False)
      (bn2): BatchNorm2d(144, eps=1e-05, momentum=0.1, affine=True, track_running_stats=True)
    )
  )
  (787): BasicBlock(
    (conv1): Conv2d(144, 144, kernel_size=(3, 3), stride=(1, 1), padding=(1, 1), bias=False)
    (bn1): BatchNorm2d(144, eps=1e-05, momentum=0.1, affine=True, track_running_stats=True)
    (relu): ReLU(inplace=True)
    (conv2): Conv2d(144, 144, kernel_size=(3, 3), stride=(1, 1), padding=(1, 1), bias=False)
    (bn2): BatchNorm2d(144, eps=1e-05, momentum=0.1, affine=True, track_running_stats=True)
  )
  (788): Conv2d(144, 144, kernel_size=(3, 3), stride=(1, 1), padding=(1, 1), bias=False)
  (789): BatchNorm2d(144, eps=1e-05, momentum=0.1, affine=True, track_running_stats=True)
  (790): ReLU(inplace=True)
  (791): Conv2d(144, 144, kernel_size=(3, 3), stride=(1, 1), padding=(1, 1), bias=False)
  (792): BatchNorm2d(144, eps=1e-05, momentum=0.1, affine=True, track_running_stats=True)
  (793): BasicBlock(
    (conv1): Conv2d(144, 144, kernel_size=(3, 3), stride=(1, 1), padding=(1, 1), bias=False)
    (bn1): BatchNorm2d(144, eps=1e-05, momentum=0.1, affine=True, track_running_stats=True)
    (relu): ReLU(inplace=True)
    (conv2): Conv2d(144, 144, kernel_size=(3, 3), stride=(1, 1), padding=(1, 1), bias=False)
    (bn2): BatchNorm2d(144, eps=1e-05, momentum=0.1, affine=True, track_running_stats=True)
  )
  (794): Conv2d(144, 144, kernel_size=(3, 3), stride=(1, 1), padding=(1, 1), bias=False)
  (795): BatchNorm2d(144, eps=1e-05, momentum=0.1, affine=True, track_running_stats=True)
  (796): ReLU(inplace=True)
  (797): Conv2d(144, 144, kernel_size=(3, 3), stride=(1, 1), padding=(1, 1), bias=False)
  (798): BatchNorm2d(144, eps=1e-05, momentum=0.1, affine=True, track_running_stats=True)
  (799): ModuleDict(
    (depth): Conv2d(144, 1, kernel_size=(1, 1), stride=(1, 1))
    (normals): Conv2d(144, 3, kernel_size=(1, 1), stride=(1, 1))
  )
  (800): Conv2d(144, 1, kernel_size=(1, 1), stride=(1, 1))
  (801): Conv2d(144, 3, kernel_size=(1, 1), stride=(1, 1))
  (802): MultiTaskDistillationModule(
    (self_attention): ModuleDict(
      (depth): ModuleDict(
        (normals): SABlock(
          (attention): Sequential(
            (0): Conv2d(18, 18, kernel_size=(3, 3), stride=(1, 1), padding=(1, 1), bias=False)
            (1): Sigmoid()
          )
          (conv): Conv2d(18, 18, kernel_size=(3, 3), stride=(1, 1), padding=(1, 1), bias=False)
        )
      )
      (normals): ModuleDict(
        (depth): SABlock(
          (attention): Sequential(
            (0): Conv2d(18, 18, kernel_size=(3, 3), stride=(1, 1), padding=(1, 1), bias=False)
            (1): Sigmoid()
          )
          (conv): Conv2d(18, 18, kernel_size=(3, 3), stride=(1, 1), padding=(1, 1), bias=False)
        )
      )
    )
  )
  (803): ModuleDict(
    (depth): ModuleDict(
      (normals): SABlock(
        (attention): Sequential(
          (0): Conv2d(18, 18, kernel_size=(3, 3), stride=(1, 1), padding=(1, 1), bias=False)
          (1): Sigmoid()
        )
        (conv): Conv2d(18, 18, kernel_size=(3, 3), stride=(1, 1), padding=(1, 1), bias=False)
      )
    )
    (normals): ModuleDict(
      (depth): SABlock(
        (attention): Sequential(
          (0): Conv2d(18, 18, kernel_size=(3, 3), stride=(1, 1), padding=(1, 1), bias=False)
          (1): Sigmoid()
        )
        (conv): Conv2d(18, 18, kernel_size=(3, 3), stride=(1, 1), padding=(1, 1), bias=False)
      )
    )
  )
  (804): ModuleDict(
    (normals): SABlock(
      (attention): Sequential(
        (0): Conv2d(18, 18, kernel_size=(3, 3), stride=(1, 1), padding=(1, 1), bias=False)
        (1): Sigmoid()
      )
      (conv): Conv2d(18, 18, kernel_size=(3, 3), stride=(1, 1), padding=(1, 1), bias=False)
    )
  )
  (805): SABlock(
    (attention): Sequential(
      (0): Conv2d(18, 18, kernel_size=(3, 3), stride=(1, 1), padding=(1, 1), bias=False)
      (1): Sigmoid()
    )
    (conv): Conv2d(18, 18, kernel_size=(3, 3), stride=(1, 1), padding=(1, 1), bias=False)
  )
  (806): Sequential(
    (0): Conv2d(18, 18, kernel_size=(3, 3), stride=(1, 1), padding=(1, 1), bias=False)
    (1): Sigmoid()
  )
  (807): Conv2d(18, 18, kernel_size=(3, 3), stride=(1, 1), padding=(1, 1), bias=False)
  (808): Sigmoid()
  (809): Conv2d(18, 18, kernel_size=(3, 3), stride=(1, 1), padding=(1, 1), bias=False)
  (810): ModuleDict(
    (depth): SABlock(
      (attention): Sequential(
        (0): Conv2d(18, 18, kernel_size=(3, 3), stride=(1, 1), padding=(1, 1), bias=False)
        (1): Sigmoid()
      )
      (conv): Conv2d(18, 18, kernel_size=(3, 3), stride=(1, 1), padding=(1, 1), bias=False)
    )
  )
  (811): SABlock(
    (attention): Sequential(
      (0): Conv2d(18, 18, kernel_size=(3, 3), stride=(1, 1), padding=(1, 1), bias=False)
      (1): Sigmoid()
    )
    (conv): Conv2d(18, 18, kernel_size=(3, 3), stride=(1, 1), padding=(1, 1), bias=False)
  )
  (812): Sequential(
    (0): Conv2d(18, 18, kernel_size=(3, 3), stride=(1, 1), padding=(1, 1), bias=False)
    (1): Sigmoid()
  )
  (813): Conv2d(18, 18, kernel_size=(3, 3), stride=(1, 1), padding=(1, 1), bias=False)
  (814): Sigmoid()
  (815): Conv2d(18, 18, kernel_size=(3, 3), stride=(1, 1), padding=(1, 1), bias=False)
  (816): MultiTaskDistillationModule(
    (self_attention): ModuleDict(
      (depth): ModuleDict(
        (normals): SABlock(
          (attention): Sequential(
            (0): Conv2d(36, 36, kernel_size=(3, 3), stride=(1, 1), padding=(1, 1), bias=False)
            (1): Sigmoid()
          )
          (conv): Conv2d(36, 36, kernel_size=(3, 3), stride=(1, 1), padding=(1, 1), bias=False)
        )
      )
      (normals): ModuleDict(
        (depth): SABlock(
          (attention): Sequential(
            (0): Conv2d(36, 36, kernel_size=(3, 3), stride=(1, 1), padding=(1, 1), bias=False)
            (1): Sigmoid()
          )
          (conv): Conv2d(36, 36, kernel_size=(3, 3), stride=(1, 1), padding=(1, 1), bias=False)
        )
      )
    )
  )
  (817): ModuleDict(
    (depth): ModuleDict(
      (normals): SABlock(
        (attention): Sequential(
          (0): Conv2d(36, 36, kernel_size=(3, 3), stride=(1, 1), padding=(1, 1), bias=False)
          (1): Sigmoid()
        )
        (conv): Conv2d(36, 36, kernel_size=(3, 3), stride=(1, 1), padding=(1, 1), bias=False)
      )
    )
    (normals): ModuleDict(
      (depth): SABlock(
        (attention): Sequential(
          (0): Conv2d(36, 36, kernel_size=(3, 3), stride=(1, 1), padding=(1, 1), bias=False)
          (1): Sigmoid()
        )
        (conv): Conv2d(36, 36, kernel_size=(3, 3), stride=(1, 1), padding=(1, 1), bias=False)
      )
    )
  )
  (818): ModuleDict(
    (normals): SABlock(
      (attention): Sequential(
        (0): Conv2d(36, 36, kernel_size=(3, 3), stride=(1, 1), padding=(1, 1), bias=False)
        (1): Sigmoid()
      )
      (conv): Conv2d(36, 36, kernel_size=(3, 3), stride=(1, 1), padding=(1, 1), bias=False)
    )
  )
  (819): SABlock(
    (attention): Sequential(
      (0): Conv2d(36, 36, kernel_size=(3, 3), stride=(1, 1), padding=(1, 1), bias=False)
      (1): Sigmoid()
    )
    (conv): Conv2d(36, 36, kernel_size=(3, 3), stride=(1, 1), padding=(1, 1), bias=False)
  )
  (820): Sequential(
    (0): Conv2d(36, 36, kernel_size=(3, 3), stride=(1, 1), padding=(1, 1), bias=False)
    (1): Sigmoid()
  )
  (821): Conv2d(36, 36, kernel_size=(3, 3), stride=(1, 1), padding=(1, 1), bias=False)
  (822): Sigmoid()
  (823): Conv2d(36, 36, kernel_size=(3, 3), stride=(1, 1), padding=(1, 1), bias=False)
  (824): ModuleDict(
    (depth): SABlock(
      (attention): Sequential(
        (0): Conv2d(36, 36, kernel_size=(3, 3), stride=(1, 1), padding=(1, 1), bias=False)
        (1): Sigmoid()
      )
      (conv): Conv2d(36, 36, kernel_size=(3, 3), stride=(1, 1), padding=(1, 1), bias=False)
    )
  )
  (825): SABlock(
    (attention): Sequential(
      (0): Conv2d(36, 36, kernel_size=(3, 3), stride=(1, 1), padding=(1, 1), bias=False)
      (1): Sigmoid()
    )
    (conv): Conv2d(36, 36, kernel_size=(3, 3), stride=(1, 1), padding=(1, 1), bias=False)
  )
  (826): Sequential(
    (0): Conv2d(36, 36, kernel_size=(3, 3), stride=(1, 1), padding=(1, 1), bias=False)
    (1): Sigmoid()
  )
  (827): Conv2d(36, 36, kernel_size=(3, 3), stride=(1, 1), padding=(1, 1), bias=False)
  (828): Sigmoid()
  (829): Conv2d(36, 36, kernel_size=(3, 3), stride=(1, 1), padding=(1, 1), bias=False)
  (830): MultiTaskDistillationModule(
    (self_attention): ModuleDict(
      (depth): ModuleDict(
        (normals): SABlock(
          (attention): Sequential(
            (0): Conv2d(72, 72, kernel_size=(3, 3), stride=(1, 1), padding=(1, 1), bias=False)
            (1): Sigmoid()
          )
          (conv): Conv2d(72, 72, kernel_size=(3, 3), stride=(1, 1), padding=(1, 1), bias=False)
        )
      )
      (normals): ModuleDict(
        (depth): SABlock(
          (attention): Sequential(
            (0): Conv2d(72, 72, kernel_size=(3, 3), stride=(1, 1), padding=(1, 1), bias=False)
            (1): Sigmoid()
          )
          (conv): Conv2d(72, 72, kernel_size=(3, 3), stride=(1, 1), padding=(1, 1), bias=False)
        )
      )
    )
  )
  (831): ModuleDict(
    (depth): ModuleDict(
      (normals): SABlock(
        (attention): Sequential(
          (0): Conv2d(72, 72, kernel_size=(3, 3), stride=(1, 1), padding=(1, 1), bias=False)
          (1): Sigmoid()
        )
        (conv): Conv2d(72, 72, kernel_size=(3, 3), stride=(1, 1), padding=(1, 1), bias=False)
      )
    )
    (normals): ModuleDict(
      (depth): SABlock(
        (attention): Sequential(
          (0): Conv2d(72, 72, kernel_size=(3, 3), stride=(1, 1), padding=(1, 1), bias=False)
          (1): Sigmoid()
        )
        (conv): Conv2d(72, 72, kernel_size=(3, 3), stride=(1, 1), padding=(1, 1), bias=False)
      )
    )
  )
  (832): ModuleDict(
    (normals): SABlock(
      (attention): Sequential(
        (0): Conv2d(72, 72, kernel_size=(3, 3), stride=(1, 1), padding=(1, 1), bias=False)
        (1): Sigmoid()
      )
      (conv): Conv2d(72, 72, kernel_size=(3, 3), stride=(1, 1), padding=(1, 1), bias=False)
    )
  )
  (833): SABlock(
    (attention): Sequential(
      (0): Conv2d(72, 72, kernel_size=(3, 3), stride=(1, 1), padding=(1, 1), bias=False)
      (1): Sigmoid()
    )
    (conv): Conv2d(72, 72, kernel_size=(3, 3), stride=(1, 1), padding=(1, 1), bias=False)
  )
  (834): Sequential(
    (0): Conv2d(72, 72, kernel_size=(3, 3), stride=(1, 1), padding=(1, 1), bias=False)
    (1): Sigmoid()
  )
  (835): Conv2d(72, 72, kernel_size=(3, 3), stride=(1, 1), padding=(1, 1), bias=False)
  (836): Sigmoid()
  (837): Conv2d(72, 72, kernel_size=(3, 3), stride=(1, 1), padding=(1, 1), bias=False)
  (838): ModuleDict(
    (depth): SABlock(
      (attention): Sequential(
        (0): Conv2d(72, 72, kernel_size=(3, 3), stride=(1, 1), padding=(1, 1), bias=False)
        (1): Sigmoid()
      )
      (conv): Conv2d(72, 72, kernel_size=(3, 3), stride=(1, 1), padding=(1, 1), bias=False)
    )
  )
  (839): SABlock(
    (attention): Sequential(
      (0): Conv2d(72, 72, kernel_size=(3, 3), stride=(1, 1), padding=(1, 1), bias=False)
      (1): Sigmoid()
    )
    (conv): Conv2d(72, 72, kernel_size=(3, 3), stride=(1, 1), padding=(1, 1), bias=False)
  )
  (840): Sequential(
    (0): Conv2d(72, 72, kernel_size=(3, 3), stride=(1, 1), padding=(1, 1), bias=False)
    (1): Sigmoid()
  )
  (841): Conv2d(72, 72, kernel_size=(3, 3), stride=(1, 1), padding=(1, 1), bias=False)
  (842): Sigmoid()
  (843): Conv2d(72, 72, kernel_size=(3, 3), stride=(1, 1), padding=(1, 1), bias=False)
  (844): MultiTaskDistillationModule(
    (self_attention): ModuleDict(
      (depth): ModuleDict(
        (normals): SABlock(
          (attention): Sequential(
            (0): Conv2d(144, 144, kernel_size=(3, 3), stride=(1, 1), padding=(1, 1), bias=False)
            (1): Sigmoid()
          )
          (conv): Conv2d(144, 144, kernel_size=(3, 3), stride=(1, 1), padding=(1, 1), bias=False)
        )
      )
      (normals): ModuleDict(
        (depth): SABlock(
          (attention): Sequential(
            (0): Conv2d(144, 144, kernel_size=(3, 3), stride=(1, 1), padding=(1, 1), bias=False)
            (1): Sigmoid()
          )
          (conv): Conv2d(144, 144, kernel_size=(3, 3), stride=(1, 1), padding=(1, 1), bias=False)
        )
      )
    )
  )
  (845): ModuleDict(
    (depth): ModuleDict(
      (normals): SABlock(
        (attention): Sequential(
          (0): Conv2d(144, 144, kernel_size=(3, 3), stride=(1, 1), padding=(1, 1), bias=False)
          (1): Sigmoid()
        )
        (conv): Conv2d(144, 144, kernel_size=(3, 3), stride=(1, 1), padding=(1, 1), bias=False)
      )
    )
    (normals): ModuleDict(
      (depth): SABlock(
        (attention): Sequential(
          (0): Conv2d(144, 144, kernel_size=(3, 3), stride=(1, 1), padding=(1, 1), bias=False)
          (1): Sigmoid()
        )
        (conv): Conv2d(144, 144, kernel_size=(3, 3), stride=(1, 1), padding=(1, 1), bias=False)
      )
    )
  )
  (846): ModuleDict(
    (normals): SABlock(
      (attention): Sequential(
        (0): Conv2d(144, 144, kernel_size=(3, 3), stride=(1, 1), padding=(1, 1), bias=False)
        (1): Sigmoid()
      )
      (conv): Conv2d(144, 144, kernel_size=(3, 3), stride=(1, 1), padding=(1, 1), bias=False)
    )
  )
  (847): SABlock(
    (attention): Sequential(
      (0): Conv2d(144, 144, kernel_size=(3, 3), stride=(1, 1), padding=(1, 1), bias=False)
      (1): Sigmoid()
    )
    (conv): Conv2d(144, 144, kernel_size=(3, 3), stride=(1, 1), padding=(1, 1), bias=False)
  )
  (848): Sequential(
    (0): Conv2d(144, 144, kernel_size=(3, 3), stride=(1, 1), padding=(1, 1), bias=False)
    (1): Sigmoid()
  )
  (849): Conv2d(144, 144, kernel_size=(3, 3), stride=(1, 1), padding=(1, 1), bias=False)
  (850): Sigmoid()
  (851): Conv2d(144, 144, kernel_size=(3, 3), stride=(1, 1), padding=(1, 1), bias=False)
  (852): ModuleDict(
    (depth): SABlock(
      (attention): Sequential(
        (0): Conv2d(144, 144, kernel_size=(3, 3), stride=(1, 1), padding=(1, 1), bias=False)
        (1): Sigmoid()
      )
      (conv): Conv2d(144, 144, kernel_size=(3, 3), stride=(1, 1), padding=(1, 1), bias=False)
    )
  )
  (853): SABlock(
    (attention): Sequential(
      (0): Conv2d(144, 144, kernel_size=(3, 3), stride=(1, 1), padding=(1, 1), bias=False)
      (1): Sigmoid()
    )
    (conv): Conv2d(144, 144, kernel_size=(3, 3), stride=(1, 1), padding=(1, 1), bias=False)
  )
  (854): Sequential(
    (0): Conv2d(144, 144, kernel_size=(3, 3), stride=(1, 1), padding=(1, 1), bias=False)
    (1): Sigmoid()
  )
  (855): Conv2d(144, 144, kernel_size=(3, 3), stride=(1, 1), padding=(1, 1), bias=False)
  (856): Sigmoid()
  (857): Conv2d(144, 144, kernel_size=(3, 3), stride=(1, 1), padding=(1, 1), bias=False)
  (858): ModuleDict(
    (depth): HighResolutionHead(
      (last_layer): Sequential(
        (0): Conv2d(270, 270, kernel_size=(1, 1), stride=(1, 1))
        (1): BatchNorm2d(270, eps=1e-05, momentum=0.1, affine=True, track_running_stats=True)
        (2): ReLU()
        (3): Conv2d(270, 1, kernel_size=(1, 1), stride=(1, 1))
      )
    )
    (normals): HighResolutionHead(
      (last_layer): Sequential(
        (0): Conv2d(270, 270, kernel_size=(1, 1), stride=(1, 1))
        (1): BatchNorm2d(270, eps=1e-05, momentum=0.1, affine=True, track_running_stats=True)
        (2): ReLU()
        (3): Conv2d(270, 3, kernel_size=(1, 1), stride=(1, 1))
      )
    )
  )
  (859): HighResolutionHead(
    (last_layer): Sequential(
      (0): Conv2d(270, 270, kernel_size=(1, 1), stride=(1, 1))
      (1): BatchNorm2d(270, eps=1e-05, momentum=0.1, affine=True, track_running_stats=True)
      (2): ReLU()
      (3): Conv2d(270, 1, kernel_size=(1, 1), stride=(1, 1))
    )
  )
  (860): Sequential(
    (0): Conv2d(270, 270, kernel_size=(1, 1), stride=(1, 1))
    (1): BatchNorm2d(270, eps=1e-05, momentum=0.1, affine=True, track_running_stats=True)
    (2): ReLU()
    (3): Conv2d(270, 1, kernel_size=(1, 1), stride=(1, 1))
  )
  (861): Conv2d(270, 270, kernel_size=(1, 1), stride=(1, 1))
  (862): BatchNorm2d(270, eps=1e-05, momentum=0.1, affine=True, track_running_stats=True)
  (863): ReLU()
  (864): Conv2d(270, 1, kernel_size=(1, 1), stride=(1, 1))
  (865): HighResolutionHead(
    (last_layer): Sequential(
      (0): Conv2d(270, 270, kernel_size=(1, 1), stride=(1, 1))
      (1): BatchNorm2d(270, eps=1e-05, momentum=0.1, affine=True, track_running_stats=True)
      (2): ReLU()
      (3): Conv2d(270, 3, kernel_size=(1, 1), stride=(1, 1))
    )
  )
)
